html,
body,
div,
span,
applet,
object,
iframe,
h1,
h2,
h3,
h4,
h5,
h6,
p,
blockquote,
pre,
a,
abbr,
acronym,
address,
big,
cite,
code,
del,
dfn,
em,
img,
ins,
kbd,
q,
s,
samp,
small,
strike,
strong,
sub,
sup,
tt,
var,
b,
u,
i,
center,
dl,
dt,
dd,
ol,
ul,
li,
fieldset,
form,
label,
legend,
table,
caption,
tbody,
tfoot,
thead,
tr,
th,
td,
article,
aside,
canvas,
details,
embed,
figure,
figcaption,
footer,
header,
hgroup,
menu,
nav,
output,
ruby,
section,
summary,
time,
mark,
audio,
video {
  margin: 0;
  padding: 0;
  border: 0;
  vertical-align: baseline;
}

html {
  -ms-text-size-adjust: 100%;
  -webkit-text-size-adjust: 100%;
}

img,
fieldset,
a img {
  border: none;
}

input[type="text"],
input[type="email"],
input[type="tel"],
textarea {
  -webkit-appearance: none;
}

input[type="submit"],
button {
  cursor: pointer;
}

input[type="submit"]::-moz-focus-inner,
button::-moz-focus-inner {
  padding: 0;
  border: 0;
}

textarea {
  overflow: auto;
}

input,
button {
  margin: 0;
  padding: 0;
  border: 0;
}

div,
input,
textarea,
select,
button,
h1,
h2,
h3,
h4,
h5,
h6,
a,
span,
a:focus {
  outline: none;
}

ul,
ol {
  list-style-type: none;
}

table {
  border-spacing: 0;
  border-collapse: collapse;
  width: 100%;
}

html {
  box-sizing: border-box;
}

*,
*:before,
*:after {
  box-sizing: inherit;
}

.la,
.lab,
.lad,
.lal,
.lar,
.las {
  -moz-osx-font-smoothing: grayscale;
  -webkit-font-smoothing: antialiased;
  display: inline-block;
  font-style: normal;
  font-variant: normal;
  text-rendering: auto;
  line-height: 1;
}

.la-lg {
  font-size: 1.33333em;
  line-height: 0.75em;
  vertical-align: -0.0667em;
}

.la-xs {
  font-size: 0.75em;
}

.la-sm {
  font-size: 0.875em;
}

.la-1x {
  font-size: 1em;
}

.la-2x {
  font-size: 2em;
}

.la-3x {
  font-size: 3em;
}

.la-4x {
  font-size: 4em;
}

.la-5x {
  font-size: 5em;
}

.la-6x {
  font-size: 6em;
}

.la-7x {
  font-size: 7em;
}

.la-8x {
  font-size: 8em;
}

.la-9x {
  font-size: 9em;
}

.la-10x {
  font-size: 10em;
}

.la-fw {
  text-align: center;
  width: 1.25em;
}

.la-ul {
  list-style-type: none;
  margin-left: 2.5em;
  padding-left: 0;
}

.la-ul > li {
  position: relative;
}

.la-li {
  left: -2em;
  position: absolute;
  text-align: center;
  width: 2em;
  line-height: inherit;
}

.la-border {
  border: solid 0.08em #eee;
  border-radius: 0.1em;
  padding: 0.2em 0.25em 0.15em;
}

.la-pull-left {
  float: left;
}

.la-pull-right {
  float: right;
}

.la.la-pull-left,
.lab.la-pull-left,
.lal.la-pull-left,
.lar.la-pull-left,
.las.la-pull-left {
  margin-right: 0.3em;
}

.la.la-pull-right,
.lab.la-pull-right,
.lal.la-pull-right,
.lar.la-pull-right,
.las.la-pull-right {
  margin-left: 0.3em;
}

.la-spin {
  -webkit-animation: la-spin 2s infinite linear;
  animation: la-spin 2s infinite linear;
}

.la-pulse {
  -webkit-animation: la-spin 1s infinite steps(8);
  animation: la-spin 1s infinite steps(8);
}

@-webkit-keyframes la-spin {
  0% {
    -webkit-transform: rotate(0);
    transform: rotate(0);
  }
  100% {
    -webkit-transform: rotate(360deg);
    transform: rotate(360deg);
  }
}

@keyframes la-spin {
  0% {
    -webkit-transform: rotate(0);
    transform: rotate(0);
  }
  100% {
    -webkit-transform: rotate(360deg);
    transform: rotate(360deg);
  }
}

.la-rotate-90 {
  -webkit-transform: rotate(90deg);
  transform: rotate(90deg);
}

.la-rotate-180 {
  -webkit-transform: rotate(180deg);
  transform: rotate(180deg);
}

.la-rotate-270 {
  -webkit-transform: rotate(270deg);
  transform: rotate(270deg);
}

.la-flip-horizontal {
  -webkit-transform: scale(-1, 1);
  transform: scale(-1, 1);
}

.la-flip-vertical {
  -webkit-transform: scale(1, -1);
  transform: scale(1, -1);
}

.la-flip-both,
.la-flip-horizontal.la-flip-vertical {
  -webkit-transform: scale(-1, -1);
  transform: scale(-1, -1);
}

:root .la-flip-both,
:root .la-flip-horizontal,
:root .la-flip-vertical,
:root .la-rotate-180,
:root .la-rotate-270,
:root .la-rotate-90 {
  -webkit-filter: none;
  filter: none;
}

.la-stack {
  display: inline-block;
  height: 2em;
  line-height: 2em;
  position: relative;
  vertical-align: middle;
  width: 2.5em;
}

.la-stack-1x,
.la-stack-2x {
  left: 0;
  position: absolute;
  text-align: center;
  width: 100%;
}

.la-stack-1x {
  line-height: inherit;
}

.la-stack-2x {
  font-size: 2em;
}

.la-inverse {
  color: #fff;
}

.la-500px:before {
  content: "\f26e";
}

.la-accessible-icon:before {
  content: "\f368";
}

.la-accusoft:before {
  content: "\f369";
}

.la-acquisitions-incorporated:before {
  content: "\f6af";
}

.la-ad:before {
  content: "\f641";
}

.la-address-book:before {
  content: "\f2b9";
}

.la-address-card:before {
  content: "\f2bb";
}

.la-adjust:before {
  content: "\f042";
}

.la-adn:before {
  content: "\f170";
}

.la-adobe:before {
  content: "\f778";
}

.la-adversal:before {
  content: "\f36a";
}

.la-affiliatetheme:before {
  content: "\f36b";
}

.la-air-freshener:before {
  content: "\f5d0";
}

.la-airbnb:before {
  content: "\f834";
}

.la-algolia:before {
  content: "\f36c";
}

.la-align-center:before {
  content: "\f037";
}

.la-align-justify:before {
  content: "\f039";
}

.la-align-left:before {
  content: "\f036";
}

.la-align-right:before {
  content: "\f038";
}

.la-alipay:before {
  content: "\f642";
}

.la-allergies:before {
  content: "\f461";
}

.la-amazon:before {
  content: "\f270";
}

.la-amazon-pay:before {
  content: "\f42c";
}

.la-ambulance:before {
  content: "\f0f9";
}

.la-american-sign-language-interpreting:before {
  content: "\f2a3";
}

.la-amilia:before {
  content: "\f36d";
}

.la-anchor:before {
  content: "\f13d";
}

.la-android:before {
  content: "\f17b";
}

.la-angellist:before {
  content: "\f209";
}

.la-angle-double-down:before {
  content: "\f103";
}

.la-angle-double-left:before {
  content: "\f100";
}

.la-angle-double-right:before {
  content: "\f101";
}

.la-angle-double-up:before {
  content: "\f102";
}

.la-angle-down:before {
  content: "\f107";
}

.la-angle-left:before {
  content: "\f104";
}

.la-angle-right:before {
  content: "\f105";
}

.la-angle-up:before {
  content: "\f106";
}

.la-angry:before {
  content: "\f556";
}

.la-angrycreative:before {
  content: "\f36e";
}

.la-angular:before {
  content: "\f420";
}

.la-ankh:before {
  content: "\f644";
}

.la-app-store:before {
  content: "\f36f";
}

.la-app-store-ios:before {
  content: "\f370";
}

.la-apper:before {
  content: "\f371";
}

.la-apple:before {
  content: "\f179";
}

.la-apple-alt:before {
  content: "\f5d1";
}

.la-apple-pay:before {
  content: "\f415";
}

.la-archive:before {
  content: "\f187";
}

.la-archway:before {
  content: "\f557";
}

.la-arrow-alt-circle-down:before {
  content: "\f358";
}

.la-arrow-alt-circle-left:before {
  content: "\f359";
}

.la-arrow-alt-circle-right:before {
  content: "\f35a";
}

.la-arrow-alt-circle-up:before {
  content: "\f35b";
}

.la-arrow-circle-down:before {
  content: "\f0ab";
}

.la-arrow-circle-left:before {
  content: "\f0a8";
}

.la-arrow-circle-right:before {
  content: "\f0a9";
}

.la-arrow-circle-up:before {
  content: "\f0aa";
}

.la-arrow-down:before {
  content: "\f063";
}

.la-arrow-left:before {
  content: "\f060";
}

.la-arrow-right:before {
  content: "\f061";
}

.la-arrow-up:before {
  content: "\f062";
}

.la-arrows-alt:before {
  content: "\f0b2";
}

.la-arrows-alt-h:before {
  content: "\f337";
}

.la-arrows-alt-v:before {
  content: "\f338";
}

.la-artstation:before {
  content: "\f77a";
}

.la-assistive-listening-systems:before {
  content: "\f2a2";
}

.la-asterisk:before {
  content: "\f069";
}

.la-asymmetrik:before {
  content: "\f372";
}

.la-at:before {
  content: "\f1fa";
}

.la-atlas:before {
  content: "\f558";
}

.la-atlassian:before {
  content: "\f77b";
}

.la-atom:before {
  content: "\f5d2";
}

.la-audible:before {
  content: "\f373";
}

.la-audio-description:before {
  content: "\f29e";
}

.la-autoprefixer:before {
  content: "\f41c";
}

.la-avianex:before {
  content: "\f374";
}

.la-aviato:before {
  content: "\f421";
}

.la-award:before {
  content: "\f559";
}

.la-aws:before {
  content: "\f375";
}

.la-baby:before {
  content: "\f77c";
}

.la-baby-carriage:before {
  content: "\f77d";
}

.la-backspace:before {
  content: "\f55a";
}

.la-backward:before {
  content: "\f04a";
}

.la-bacon:before {
  content: "\f7e5";
}

.la-balance-scale:before {
  content: "\f24e";
}

.la-balance-scale-left:before {
  content: "\f515";
}

.la-balance-scale-right:before {
  content: "\f516";
}

.la-ban:before {
  content: "\f05e";
}

.la-band-aid:before {
  content: "\f462";
}

.la-bandcamp:before {
  content: "\f2d5";
}

.la-barcode:before {
  content: "\f02a";
}

.la-bars:before {
  content: "\f0c9";
}

.la-baseball-ball:before {
  content: "\f433";
}

.la-basketball-ball:before {
  content: "\f434";
}

.la-bath:before {
  content: "\f2cd";
}

.la-battery-empty:before {
  content: "\f244";
}

.la-battery-full:before {
  content: "\f240";
}

.la-battery-half:before {
  content: "\f242";
}

.la-battery-quarter:before {
  content: "\f243";
}

.la-battery-three-quarters:before {
  content: "\f241";
}

.la-battle-net:before {
  content: "\f835";
}

.la-bed:before {
  content: "\f236";
}

.la-beer:before {
  content: "\f0fc";
}

.la-behance:before {
  content: "\f1b4";
}

.la-behance-square:before {
  content: "\f1b5";
}

.la-bell:before {
  content: "\f0f3";
}

.la-bell-slash:before {
  content: "\f1f6";
}

.la-bezier-curve:before {
  content: "\f55b";
}

.la-bible:before {
  content: "\f647";
}

.la-bicycle:before {
  content: "\f206";
}

.la-biking:before {
  content: "\f84a";
}

.la-bimobject:before {
  content: "\f378";
}

.la-binoculars:before {
  content: "\f1e5";
}

.la-biohazard:before {
  content: "\f780";
}

.la-birthday-cake:before {
  content: "\f1fd";
}

.la-bitbucket:before {
  content: "\f171";
}

.la-bitcoin:before {
  content: "\f379";
}

.la-bity:before {
  content: "\f37a";
}

.la-black-tie:before {
  content: "\f27e";
}

.la-blackberry:before {
  content: "\f37b";
}

.la-blender:before {
  content: "\f517";
}

.la-blender-phone:before {
  content: "\f6b6";
}

.la-blind:before {
  content: "\f29d";
}

.la-blog:before {
  content: "\f781";
}

.la-blogger:before {
  content: "\f37c";
}

.la-blogger-b:before {
  content: "\f37d";
}

.la-bluetooth:before {
  content: "\f293";
}

.la-bluetooth-b:before {
  content: "\f294";
}

.la-bold:before {
  content: "\f032";
}

.la-bolt:before {
  content: "\f0e7";
}

.la-bomb:before {
  content: "\f1e2";
}

.la-bone:before {
  content: "\f5d7";
}

.la-bong:before {
  content: "\f55c";
}

.la-book:before {
  content: "\f02d";
}

.la-book-dead:before {
  content: "\f6b7";
}

.la-book-medical:before {
  content: "\f7e6";
}

.la-book-open:before {
  content: "\f518";
}

.la-book-reader:before {
  content: "\f5da";
}

.la-bookmark:before {
  content: "\f02e";
}

.la-bootstrap:before {
  content: "\f836";
}

.la-border-all:before {
  content: "\f84c";
}

.la-border-none:before {
  content: "\f850";
}

.la-border-style:before {
  content: "\f853";
}

.la-bowling-ball:before {
  content: "\f436";
}

.la-box:before {
  content: "\f466";
}

.la-box-open:before {
  content: "\f49e";
}

.la-boxes:before {
  content: "\f468";
}

.la-braille:before {
  content: "\f2a1";
}

.la-brain:before {
  content: "\f5dc";
}

.la-bread-slice:before {
  content: "\f7ec";
}

.la-briefcase:before {
  content: "\f0b1";
}

.la-briefcase-medical:before {
  content: "\f469";
}

.la-broadcast-tower:before {
  content: "\f519";
}

.la-broom:before {
  content: "\f51a";
}

.la-brush:before {
  content: "\f55d";
}

.la-btc:before {
  content: "\f15a";
}

.la-buffer:before {
  content: "\f837";
}

.la-bug:before {
  content: "\f188";
}

.la-building:before {
  content: "\f1ad";
}

.la-bullhorn:before {
  content: "\f0a1";
}

.la-bullseye:before {
  content: "\f140";
}

.la-burn:before {
  content: "\f46a";
}

.la-buromobelexperte:before {
  content: "\f37f";
}

.la-bus:before {
  content: "\f207";
}

.la-bus-alt:before {
  content: "\f55e";
}

.la-business-time:before {
  content: "\f64a";
}

.la-buy-n-large:before {
  content: "\f8a6";
}

.la-buysellads:before {
  content: "\f20d";
}

.la-calculator:before {
  content: "\f1ec";
}

.la-calendar:before {
  content: "\f133";
}

.la-calendar-alt:before {
  content: "\f073";
}

.la-calendar-check:before {
  content: "\f274";
}

.la-calendar-day:before {
  content: "\f783";
}

.la-calendar-minus:before {
  content: "\f272";
}

.la-calendar-plus:before {
  content: "\f271";
}

.la-calendar-times:before {
  content: "\f273";
}

.la-calendar-week:before {
  content: "\f784";
}

.la-camera:before {
  content: "\f030";
}

.la-camera-retro:before {
  content: "\f083";
}

.la-campground:before {
  content: "\f6bb";
}

.la-canadian-maple-leaf:before {
  content: "\f785";
}

.la-candy-cane:before {
  content: "\f786";
}

.la-cannabis:before {
  content: "\f55f";
}

.la-capsules:before {
  content: "\f46b";
}

.la-car:before {
  content: "\f1b9";
}

.la-car-alt:before {
  content: "\f5de";
}

.la-car-battery:before {
  content: "\f5df";
}

.la-car-crash:before {
  content: "\f5e1";
}

.la-car-side:before {
  content: "\f5e4";
}

.la-caret-down:before {
  content: "\f0d7";
}

.la-caret-left:before {
  content: "\f0d9";
}

.la-caret-right:before {
  content: "\f0da";
}

.la-caret-square-down:before {
  content: "\f150";
}

.la-caret-square-left:before {
  content: "\f191";
}

.la-caret-square-right:before {
  content: "\f152";
}

.la-caret-square-up:before {
  content: "\f151";
}

.la-caret-up:before {
  content: "\f0d8";
}

.la-carrot:before {
  content: "\f787";
}

.la-cart-arrow-down:before {
  content: "\f218";
}

.la-cart-plus:before {
  content: "\f217";
}

.la-cash-register:before {
  content: "\f788";
}

.la-cat:before {
  content: "\f6be";
}

.la-cc-amazon-pay:before {
  content: "\f42d";
}

.la-cc-amex:before {
  content: "\f1f3";
}

.la-cc-apple-pay:before {
  content: "\f416";
}

.la-cc-diners-club:before {
  content: "\f24c";
}

.la-cc-discover:before {
  content: "\f1f2";
}

.la-cc-jcb:before {
  content: "\f24b";
}

.la-cc-mastercard:before {
  content: "\f1f1";
}

.la-cc-paypal:before {
  content: "\f1f4";
}

.la-cc-stripe:before {
  content: "\f1f5";
}

.la-cc-visa:before {
  content: "\f1f0";
}

.la-centercode:before {
  content: "\f380";
}

.la-centos:before {
  content: "\f789";
}

.la-certificate:before {
  content: "\f0a3";
}

.la-chair:before {
  content: "\f6c0";
}

.la-chalkboard:before {
  content: "\f51b";
}

.la-chalkboard-teacher:before {
  content: "\f51c";
}

.la-charging-station:before {
  content: "\f5e7";
}

.la-chart-area:before {
  content: "\f1fe";
}

.la-chart-bar:before {
  content: "\f080";
}

.la-chart-line:before {
  content: "\f201";
}

.la-chart-pie:before {
  content: "\f200";
}

.la-check:before {
  content: "\f00c";
}

.la-check-circle:before {
  content: "\f058";
}

.la-check-double:before {
  content: "\f560";
}

.la-check-square:before {
  content: "\f14a";
}

.la-cheese:before {
  content: "\f7ef";
}

.la-chess:before {
  content: "\f439";
}

.la-chess-bishop:before {
  content: "\f43a";
}

.la-chess-board:before {
  content: "\f43c";
}

.la-chess-king:before {
  content: "\f43f";
}

.la-chess-knight:before {
  content: "\f441";
}

.la-chess-pawn:before {
  content: "\f443";
}

.la-chess-queen:before {
  content: "\f445";
}

.la-chess-rook:before {
  content: "\f447";
}

.la-chevron-circle-down:before {
  content: "\f13a";
}

.la-chevron-circle-left:before {
  content: "\f137";
}

.la-chevron-circle-right:before {
  content: "\f138";
}

.la-chevron-circle-up:before {
  content: "\f139";
}

.la-chevron-down:before {
  content: "\f078";
}

.la-chevron-left:before {
  content: "\f053";
}

.la-chevron-right:before {
  content: "\f054";
}

.la-chevron-up:before {
  content: "\f077";
}

.la-child:before {
  content: "\f1ae";
}

.la-chrome:before {
  content: "\f268";
}

.la-chromecast:before {
  content: "\f838";
}

.la-church:before {
  content: "\f51d";
}

.la-circle:before {
  content: "\f111";
}

.la-circle-notch:before {
  content: "\f1ce";
}

.la-city:before {
  content: "\f64f";
}

.la-clinic-medical:before {
  content: "\f7f2";
}

.la-clipboard:before {
  content: "\f328";
}

.la-clipboard-check:before {
  content: "\f46c";
}

.la-clipboard-list:before {
  content: "\f46d";
}

.la-clock:before {
  content: "\f017";
}

.la-clone:before {
  content: "\f24d";
}

.la-closed-captioning:before {
  content: "\f20a";
}

.la-cloud:before {
  content: "\f0c2";
}

.la-cloud-download-alt:before {
  content: "\f381";
}

.la-cloud-meatball:before {
  content: "\f73b";
}

.la-cloud-moon:before {
  content: "\f6c3";
}

.la-cloud-moon-rain:before {
  content: "\f73c";
}

.la-cloud-rain:before {
  content: "\f73d";
}

.la-cloud-showers-heavy:before {
  content: "\f740";
}

.la-cloud-sun:before {
  content: "\f6c4";
}

.la-cloud-sun-rain:before {
  content: "\f743";
}

.la-cloud-upload-alt:before {
  content: "\f382";
}

.la-cloudscale:before {
  content: "\f383";
}

.la-cloudsmith:before {
  content: "\f384";
}

.la-cloudversify:before {
  content: "\f385";
}

.la-cocktail:before {
  content: "\f561";
}

.la-code:before {
  content: "\f121";
}

.la-code-branch:before {
  content: "\f126";
}

.la-codepen:before {
  content: "\f1cb";
}

.la-codiepie:before {
  content: "\f284";
}

.la-coffee:before {
  content: "\f0f4";
}

.la-cog:before {
  content: "\f013";
}

.la-cogs:before {
  content: "\f085";
}

.la-coins:before {
  content: "\f51e";
}

.la-columns:before {
  content: "\f0db";
}

.la-comment:before {
  content: "\f075";
}

.la-comment-alt:before {
  content: "\f27a";
}

.la-comment-dollar:before {
  content: "\f651";
}

.la-comment-dots:before {
  content: "\f4ad";
}

.la-comment-medical:before {
  content: "\f7f5";
}

.la-comment-slash:before {
  content: "\f4b3";
}

.la-comments:before {
  content: "\f086";
}

.la-comments-dollar:before {
  content: "\f653";
}

.la-compact-disc:before {
  content: "\f51f";
}

.la-compass:before {
  content: "\f14e";
}

.la-compress:before {
  content: "\f066";
}

.la-compress-arrows-alt:before {
  content: "\f78c";
}

.la-concierge-bell:before {
  content: "\f562";
}

.la-confluence:before {
  content: "\f78d";
}

.la-connectdevelop:before {
  content: "\f20e";
}

.la-contao:before {
  content: "\f26d";
}

.la-cookie:before {
  content: "\f563";
}

.la-cookie-bite:before {
  content: "\f564";
}

.la-copy:before {
  content: "\f0c5";
}

.la-copyright:before {
  content: "\f1f9";
}

.la-cotton-bureau:before {
  content: "\f89e";
}

.la-couch:before {
  content: "\f4b8";
}

.la-cpanel:before {
  content: "\f388";
}

.la-creative-commons:before {
  content: "\f25e";
}

.la-creative-commons-by:before {
  content: "\f4e7";
}

.la-creative-commons-nc:before {
  content: "\f4e8";
}

.la-creative-commons-nc-eu:before {
  content: "\f4e9";
}

.la-creative-commons-nc-jp:before {
  content: "\f4ea";
}

.la-creative-commons-nd:before {
  content: "\f4eb";
}

.la-creative-commons-pd:before {
  content: "\f4ec";
}

.la-creative-commons-pd-alt:before {
  content: "\f4ed";
}

.la-creative-commons-remix:before {
  content: "\f4ee";
}

.la-creative-commons-sa:before {
  content: "\f4ef";
}

.la-creative-commons-sampling:before {
  content: "\f4f0";
}

.la-creative-commons-sampling-plus:before {
  content: "\f4f1";
}

.la-creative-commons-share:before {
  content: "\f4f2";
}

.la-creative-commons-zero:before {
  content: "\f4f3";
}

.la-credit-card:before {
  content: "\f09d";
}

.la-critical-role:before {
  content: "\f6c9";
}

.la-crop:before {
  content: "\f125";
}

.la-crop-alt:before {
  content: "\f565";
}

.la-cross:before {
  content: "\f654";
}

.la-crosshairs:before {
  content: "\f05b";
}

.la-crow:before {
  content: "\f520";
}

.la-crown:before {
  content: "\f521";
}

.la-crutch:before {
  content: "\f7f7";
}

.la-css3:before {
  content: "\f13c";
}

.la-css3-alt:before {
  content: "\f38b";
}

.la-cube:before {
  content: "\f1b2";
}

.la-cubes:before {
  content: "\f1b3";
}

.la-cut:before {
  content: "\f0c4";
}

.la-cuttlefish:before {
  content: "\f38c";
}

.la-d-and-d:before {
  content: "\f38d";
}

.la-d-and-d-beyond:before {
  content: "\f6ca";
}

.la-dashcube:before {
  content: "\f210";
}

.la-database:before {
  content: "\f1c0";
}

.la-deaf:before {
  content: "\f2a4";
}

.la-delicious:before {
  content: "\f1a5";
}

.la-democrat:before {
  content: "\f747";
}

.la-deploydog:before {
  content: "\f38e";
}

.la-deskpro:before {
  content: "\f38f";
}

.la-desktop:before {
  content: "\f108";
}

.la-dev:before {
  content: "\f6cc";
}

.la-deviantart:before {
  content: "\f1bd";
}

.la-dharmachakra:before {
  content: "\f655";
}

.la-dhl:before {
  content: "\f790";
}

.la-diagnoses:before {
  content: "\f470";
}

.la-diaspora:before {
  content: "\f791";
}

.la-dice:before {
  content: "\f522";
}

.la-dice-d20:before {
  content: "\f6cf";
}

.la-dice-d6:before {
  content: "\f6d1";
}

.la-dice-five:before {
  content: "\f523";
}

.la-dice-four:before {
  content: "\f524";
}

.la-dice-one:before {
  content: "\f525";
}

.la-dice-six:before {
  content: "\f526";
}

.la-dice-three:before {
  content: "\f527";
}

.la-dice-two:before {
  content: "\f528";
}

.la-digg:before {
  content: "\f1a6";
}

.la-digital-ocean:before {
  content: "\f391";
}

.la-digital-tachograph:before {
  content: "\f566";
}

.la-directions:before {
  content: "\f5eb";
}

.la-discord:before {
  content: "\f392";
}

.la-discourse:before {
  content: "\f393";
}

.la-divide:before {
  content: "\f529";
}

.la-dizzy:before {
  content: "\f567";
}

.la-dna:before {
  content: "\f471";
}

.la-dochub:before {
  content: "\f394";
}

.la-docker:before {
  content: "\f395";
}

.la-dog:before {
  content: "\f6d3";
}

.la-dollar-sign:before {
  content: "\f155";
}

.la-dolly:before {
  content: "\f472";
}

.la-dolly-flatbed:before {
  content: "\f474";
}

.la-donate:before {
  content: "\f4b9";
}

.la-door-closed:before {
  content: "\f52a";
}

.la-door-open:before {
  content: "\f52b";
}

.la-dot-circle:before {
  content: "\f192";
}

.la-dove:before {
  content: "\f4ba";
}

.la-download:before {
  content: "\f019";
}

.la-draft2digital:before {
  content: "\f396";
}

.la-drafting-compass:before {
  content: "\f568";
}

.la-dragon:before {
  content: "\f6d5";
}

.la-draw-polygon:before {
  content: "\f5ee";
}

.la-dribbble:before {
  content: "\f17d";
}

.la-dribbble-square:before {
  content: "\f397";
}

.la-dropbox:before {
  content: "\f16b";
}

.la-drum:before {
  content: "\f569";
}

.la-drum-steelpan:before {
  content: "\f56a";
}

.la-drumstick-bite:before {
  content: "\f6d7";
}

.la-drupal:before {
  content: "\f1a9";
}

.la-dumbbell:before {
  content: "\f44b";
}

.la-dumpster:before {
  content: "\f793";
}

.la-dumpster-fire:before {
  content: "\f794";
}

.la-dungeon:before {
  content: "\f6d9";
}

.la-dyalog:before {
  content: "\f399";
}

.la-earlybirds:before {
  content: "\f39a";
}

.la-ebay:before {
  content: "\f4f4";
}

.la-edge:before {
  content: "\f282";
}

.la-edit:before {
  content: "\f044";
}

.la-egg:before {
  content: "\f7fb";
}

.la-eject:before {
  content: "\f052";
}

.la-elementor:before {
  content: "\f430";
}

.la-ellipsis-h:before {
  content: "\f141";
}

.la-ellipsis-v:before {
  content: "\f142";
}

.la-ello:before {
  content: "\f5f1";
}

.la-ember:before {
  content: "\f423";
}

.la-empire:before {
  content: "\f1d1";
}

.la-envelope:before {
  content: "\f0e0";
}

.la-envelope-open:before {
  content: "\f2b6";
}

.la-envelope-open-text:before {
  content: "\f658";
}

.la-envelope-square:before {
  content: "\f199";
}

.la-envira:before {
  content: "\f299";
}

.la-equals:before {
  content: "\f52c";
}

.la-eraser:before {
  content: "\f12d";
}

.la-erlang:before {
  content: "\f39d";
}

.la-ethereum:before {
  content: "\f42e";
}

.la-ethernet:before {
  content: "\f796";
}

.la-etsy:before {
  content: "\f2d7";
}

.la-euro-sign:before {
  content: "\f153";
}

.la-evernote:before {
  content: "\f839";
}

.la-exchange-alt:before {
  content: "\f362";
}

.la-exclamation:before {
  content: "\f12a";
}

.la-exclamation-circle:before {
  content: "\f06a";
}

.la-exclamation-triangle:before {
  content: "\f071";
}

.la-expand:before {
  content: "\f065";
}

.la-expand-arrows-alt:before {
  content: "\f31e";
}

.la-expeditedssl:before {
  content: "\f23e";
}

.la-external-link-alt:before {
  content: "\f35d";
}

.la-external-link-square-alt:before {
  content: "\f360";
}

.la-eye:before {
  content: "\f06e";
}

.la-eye-dropper:before {
  content: "\f1fb";
}

.la-eye-slash:before {
  content: "\f070";
}

.la-facebook:before {
  content: "\f09a";
}

.la-facebook-f:before {
  content: "\f39e";
}

.la-facebook-messenger:before {
  content: "\f39f";
}

.la-facebook-square:before {
  content: "\f082";
}

.la-fan:before {
  content: "\f863";
}

.la-fantasy-flight-games:before {
  content: "\f6dc";
}

.la-fast-backward:before {
  content: "\f049";
}

.la-fast-forward:before {
  content: "\f050";
}

.la-fax:before {
  content: "\f1ac";
}

.la-feather:before {
  content: "\f52d";
}

.la-feather-alt:before {
  content: "\f56b";
}

.la-fedex:before {
  content: "\f797";
}

.la-fedora:before {
  content: "\f798";
}

.la-female:before {
  content: "\f182";
}

.la-fighter-jet:before {
  content: "\f0fb";
}

.la-figma:before {
  content: "\f799";
}

.la-file:before {
  content: "\f15b";
}

.la-file-alt:before {
  content: "\f15c";
}

.la-file-archive:before {
  content: "\f1c6";
}

.la-file-audio:before {
  content: "\f1c7";
}

.la-file-code:before {
  content: "\f1c9";
}

.la-file-contract:before {
  content: "\f56c";
}

.la-file-csv:before {
  content: "\f6dd";
}

.la-file-download:before {
  content: "\f56d";
}

.la-file-excel:before {
  content: "\f1c3";
}

.la-file-export:before {
  content: "\f56e";
}

.la-file-image:before {
  content: "\f1c5";
}

.la-file-import:before {
  content: "\f56f";
}

.la-file-invoice:before {
  content: "\f570";
}

.la-file-invoice-dollar:before {
  content: "\f571";
}

.la-file-medical:before {
  content: "\f477";
}

.la-file-medical-alt:before {
  content: "\f478";
}

.la-file-pdf:before {
  content: "\f1c1";
}

.la-file-powerpoint:before {
  content: "\f1c4";
}

.la-file-prescription:before {
  content: "\f572";
}

.la-file-signature:before {
  content: "\f573";
}

.la-file-upload:before {
  content: "\f574";
}

.la-file-video:before {
  content: "\f1c8";
}

.la-file-word:before {
  content: "\f1c2";
}

.la-fill:before {
  content: "\f575";
}

.la-fill-drip:before {
  content: "\f576";
}

.la-film:before {
  content: "\f008";
}

.la-filter:before {
  content: "\f0b0";
}

.la-fingerprint:before {
  content: "\f577";
}

.la-fire:before {
  content: "\f06d";
}

.la-fire-alt:before {
  content: "\f7e4";
}

.la-fire-extinguisher:before {
  content: "\f134";
}

.la-firefox:before {
  content: "\f269";
}

.la-first-aid:before {
  content: "\f479";
}

.la-first-order:before {
  content: "\f2b0";
}

.la-first-order-alt:before {
  content: "\f50a";
}

.la-firstdraft:before {
  content: "\f3a1";
}

.la-fish:before {
  content: "\f578";
}

.la-fist-raised:before {
  content: "\f6de";
}

.la-flag:before {
  content: "\f024";
}

.la-flag-checkered:before {
  content: "\f11e";
}

.la-flag-usa:before {
  content: "\f74d";
}

.la-flask:before {
  content: "\f0c3";
}

.la-flickr:before {
  content: "\f16e";
}

.la-flipboard:before {
  content: "\f44d";
}

.la-flushed:before {
  content: "\f579";
}

.la-fly:before {
  content: "\f417";
}

.la-folder:before {
  content: "\f07b";
}

.la-folder-minus:before {
  content: "\f65d";
}

.la-folder-open:before {
  content: "\f07c";
}

.la-folder-plus:before {
  content: "\f65e";
}

.la-font:before {
  content: "\f031";
}

.la-font-awesome:before {
  content: "\f2b4";
}

.la-font-awesome-alt:before {
  content: "\f35c";
}

.la-font-awesome-flag:before {
  content: "\f425";
}

.la-font-awesome-logo-full:before {
  content: "\f4e6";
}

.la-fonticons:before {
  content: "\f280";
}

.la-fonticons-fi:before {
  content: "\f3a2";
}

.la-football-ball:before {
  content: "\f44e";
}

.la-fort-awesome:before {
  content: "\f286";
}

.la-fort-awesome-alt:before {
  content: "\f3a3";
}

.la-forumbee:before {
  content: "\f211";
}

.la-forward:before {
  content: "\f04e";
}

.la-foursquare:before {
  content: "\f180";
}

.la-free-code-camp:before {
  content: "\f2c5";
}

.la-freebsd:before {
  content: "\f3a4";
}

.la-frog:before {
  content: "\f52e";
}

.la-frown:before {
  content: "\f119";
}

.la-frown-open:before {
  content: "\f57a";
}

.la-fulcrum:before {
  content: "\f50b";
}

.la-funnel-dollar:before {
  content: "\f662";
}

.la-futbol:before {
  content: "\f1e3";
}

.la-galactic-republic:before {
  content: "\f50c";
}

.la-galactic-senate:before {
  content: "\f50d";
}

.la-gamepad:before {
  content: "\f11b";
}

.la-gas-pump:before {
  content: "\f52f";
}

.la-gavel:before {
  content: "\f0e3";
}

.la-gem:before {
  content: "\f3a5";
}

.la-genderless:before {
  content: "\f22d";
}

.la-get-pocket:before {
  content: "\f265";
}

.la-gg:before {
  content: "\f260";
}

.la-gg-circle:before {
  content: "\f261";
}

.la-ghost:before {
  content: "\f6e2";
}

.la-gift:before {
  content: "\f06b";
}

.la-gifts:before {
  content: "\f79c";
}

.la-git:before {
  content: "\f1d3";
}

.la-git-alt:before {
  content: "\f841";
}

.la-git-square:before {
  content: "\f1d2";
}

.la-github:before {
  content: "\f09b";
}

.la-github-alt:before {
  content: "\f113";
}

.la-github-square:before {
  content: "\f092";
}

.la-gitkraken:before {
  content: "\f3a6";
}

.la-gitlab:before {
  content: "\f296";
}

.la-gitter:before {
  content: "\f426";
}

.la-glass-cheers:before {
  content: "\f79f";
}

.la-glass-martini:before {
  content: "\f000";
}

.la-glass-martini-alt:before {
  content: "\f57b";
}

.la-glass-whiskey:before {
  content: "\f7a0";
}

.la-glasses:before {
  content: "\f530";
}

.la-glide:before {
  content: "\f2a5";
}

.la-glide-g:before {
  content: "\f2a6";
}

.la-globe:before {
  content: "\f0ac";
}

.la-globe-africa:before {
  content: "\f57c";
}

.la-globe-americas:before {
  content: "\f57d";
}

.la-globe-asia:before {
  content: "\f57e";
}

.la-globe-europe:before {
  content: "\f7a2";
}

.la-gofore:before {
  content: "\f3a7";
}

.la-golf-ball:before {
  content: "\f450";
}

.la-goodreads:before {
  content: "\f3a8";
}

.la-goodreads-g:before {
  content: "\f3a9";
}

.la-google:before {
  content: "\f1a0";
}

.la-google-drive:before {
  content: "\f3aa";
}

.la-google-play:before {
  content: "\f3ab";
}

.la-google-plus:before {
  content: "\f2b3";
}

.la-google-plus-g:before {
  content: "\f0d5";
}

.la-google-plus-square:before {
  content: "\f0d4";
}

.la-google-wallet:before {
  content: "\f1ee";
}

.la-gopuram:before {
  content: "\f664";
}

.la-graduation-cap:before {
  content: "\f19d";
}

.la-gratipay:before {
  content: "\f184";
}

.la-grav:before {
  content: "\f2d6";
}

.la-greater-than:before {
  content: "\f531";
}

.la-greater-than-equal:before {
  content: "\f532";
}

.la-grimace:before {
  content: "\f57f";
}

.la-grin:before {
  content: "\f580";
}

.la-grin-alt:before {
  content: "\f581";
}

.la-grin-beam:before {
  content: "\f582";
}

.la-grin-beam-sweat:before {
  content: "\f583";
}

.la-grin-hearts:before {
  content: "\f584";
}

.la-grin-squint:before {
  content: "\f585";
}

.la-grin-squint-tears:before {
  content: "\f586";
}

.la-grin-stars:before {
  content: "\f587";
}

.la-grin-tears:before {
  content: "\f588";
}

.la-grin-tongue:before {
  content: "\f589";
}

.la-grin-tongue-squint:before {
  content: "\f58a";
}

.la-grin-tongue-wink:before {
  content: "\f58b";
}

.la-grin-wink:before {
  content: "\f58c";
}

.la-grip-horizontal:before {
  content: "\f58d";
}

.la-grip-lines:before {
  content: "\f7a4";
}

.la-grip-lines-vertical:before {
  content: "\f7a5";
}

.la-grip-vertical:before {
  content: "\f58e";
}

.la-gripfire:before {
  content: "\f3ac";
}

.la-grunt:before {
  content: "\f3ad";
}

.la-guitar:before {
  content: "\f7a6";
}

.la-gulp:before {
  content: "\f3ae";
}

.la-h-square:before {
  content: "\f0fd";
}

.la-hacker-news:before {
  content: "\f1d4";
}

.la-hacker-news-square:before {
  content: "\f3af";
}

.la-hackerrank:before {
  content: "\f5f7";
}

.la-hamburger:before {
  content: "\f805";
}

.la-hammer:before {
  content: "\f6e3";
}

.la-hamsa:before {
  content: "\f665";
}

.la-hand-holding:before {
  content: "\f4bd";
}

.la-hand-holding-heart:before {
  content: "\f4be";
}

.la-hand-holding-usd:before {
  content: "\f4c0";
}

.la-hand-lizard:before {
  content: "\f258";
}

.la-hand-middle-finger:before {
  content: "\f806";
}

.la-hand-paper:before {
  content: "\f256";
}

.la-hand-peace:before {
  content: "\f25b";
}

.la-hand-point-down:before {
  content: "\f0a7";
}

.la-hand-point-left:before {
  content: "\f0a5";
}

.la-hand-point-right:before {
  content: "\f0a4";
}

.la-hand-point-up:before {
  content: "\f0a6";
}

.la-hand-pointer:before {
  content: "\f25a";
}

.la-hand-rock:before {
  content: "\f255";
}

.la-hand-scissors:before {
  content: "\f257";
}

.la-hand-spock:before {
  content: "\f259";
}

.la-hands:before {
  content: "\f4c2";
}

.la-hands-helping:before {
  content: "\f4c4";
}

.la-handshake:before {
  content: "\f2b5";
}

.la-hanukiah:before {
  content: "\f6e6";
}

.la-hard-hat:before {
  content: "\f807";
}

.la-hashtag:before {
  content: "\f292";
}

.la-hat-cowboy:before {
  content: "\f8c0";
}

.la-hat-cowboy-side:before {
  content: "\f8c1";
}

.la-hat-wizard:before {
  content: "\f6e8";
}

.la-haykal:before {
  content: "\f666";
}

.la-hdd:before {
  content: "\f0a0";
}

.la-heading:before {
  content: "\f1dc";
}

.la-headphones:before {
  content: "\f025";
}

.la-headphones-alt:before {
  content: "\f58f";
}

.la-headset:before {
  content: "\f590";
}

.la-heart:before {
  content: "\f004";
}

.la-heart-broken:before {
  content: "\f7a9";
}

.la-heartbeat:before {
  content: "\f21e";
}

.la-helicopter:before {
  content: "\f533";
}

.la-highlighter:before {
  content: "\f591";
}

.la-hiking:before {
  content: "\f6ec";
}

.la-hippo:before {
  content: "\f6ed";
}

.la-hips:before {
  content: "\f452";
}

.la-hire-a-helper:before {
  content: "\f3b0";
}

.la-history:before {
  content: "\f1da";
}

.la-hockey-puck:before {
  content: "\f453";
}

.la-holly-berry:before {
  content: "\f7aa";
}

.la-home:before {
  content: "\f015";
}

.la-hooli:before {
  content: "\f427";
}

.la-hornbill:before {
  content: "\f592";
}

.la-horse:before {
  content: "\f6f0";
}

.la-horse-head:before {
  content: "\f7ab";
}

.la-hospital:before {
  content: "\f0f8";
}

.la-hospital-alt:before {
  content: "\f47d";
}

.la-hospital-symbol:before {
  content: "\f47e";
}

.la-hot-tub:before {
  content: "\f593";
}

.la-hotdog:before {
  content: "\f80f";
}

.la-hotel:before {
  content: "\f594";
}

.la-hotjar:before {
  content: "\f3b1";
}

.la-hourglass:before {
  content: "\f254";
}

.la-hourglass-end:before {
  content: "\f253";
}

.la-hourglass-half:before {
  content: "\f252";
}

.la-hourglass-start:before {
  content: "\f251";
}

.la-house-damage:before {
  content: "\f6f1";
}

.la-houzz:before {
  content: "\f27c";
}

.la-hryvnia:before {
  content: "\f6f2";
}

.la-html5:before {
  content: "\f13b";
}

.la-hubspot:before {
  content: "\f3b2";
}

.la-i-cursor:before {
  content: "\f246";
}

.la-ice-cream:before {
  content: "\f810";
}

.la-icicles:before {
  content: "\f7ad";
}

.la-icons:before {
  content: "\f86d";
}

.la-id-badge:before {
  content: "\f2c1";
}

.la-id-card:before {
  content: "\f2c2";
}

.la-id-card-alt:before {
  content: "\f47f";
}

.la-igloo:before {
  content: "\f7ae";
}

.la-image:before {
  content: "\f03e";
}

.la-images:before {
  content: "\f302";
}

.la-imdb:before {
  content: "\f2d8";
}

.la-inbox:before {
  content: "\f01c";
}

.la-indent:before {
  content: "\f03c";
}

.la-industry:before {
  content: "\f275";
}

.la-infinity:before {
  content: "\f534";
}

.la-info:before {
  content: "\f129";
}

.la-info-circle:before {
  content: "\f05a";
}

.la-instagram:before {
  content: "\f16d";
}

.la-intercom:before {
  content: "\f7af";
}

.la-internet-explorer:before {
  content: "\f26b";
}

.la-invision:before {
  content: "\f7b0";
}

.la-ioxhost:before {
  content: "\f208";
}

.la-italic:before {
  content: "\f033";
}

.la-itch-io:before {
  content: "\f83a";
}

.la-itunes:before {
  content: "\f3b4";
}

.la-itunes-note:before {
  content: "\f3b5";
}

.la-java:before {
  content: "\f4e4";
}

.la-jedi:before {
  content: "\f669";
}

.la-jedi-order:before {
  content: "\f50e";
}

.la-jenkins:before {
  content: "\f3b6";
}

.la-jira:before {
  content: "\f7b1";
}

.la-joget:before {
  content: "\f3b7";
}

.la-joint:before {
  content: "\f595";
}

.la-joomla:before {
  content: "\f1aa";
}

.la-journal-whills:before {
  content: "\f66a";
}

.la-js:before {
  content: "\f3b8";
}

.la-js-square:before {
  content: "\f3b9";
}

.la-jsfiddle:before {
  content: "\f1cc";
}

.la-kaaba:before {
  content: "\f66b";
}

.la-kaggle:before {
  content: "\f5fa";
}

.la-key:before {
  content: "\f084";
}

.la-keybase:before {
  content: "\f4f5";
}

.la-keyboard:before {
  content: "\f11c";
}

.la-keycdn:before {
  content: "\f3ba";
}

.la-khanda:before {
  content: "\f66d";
}

.la-kickstarter:before {
  content: "\f3bb";
}

.la-kickstarter-k:before {
  content: "\f3bc";
}

.la-kiss:before {
  content: "\f596";
}

.la-kiss-beam:before {
  content: "\f597";
}

.la-kiss-wink-heart:before {
  content: "\f598";
}

.la-kiwi-bird:before {
  content: "\f535";
}

.la-korvue:before {
  content: "\f42f";
}

.la-landmark:before {
  content: "\f66f";
}

.la-language:before {
  content: "\f1ab";
}

.la-laptop:before {
  content: "\f109";
}

.la-laptop-code:before {
  content: "\f5fc";
}

.la-laptop-medical:before {
  content: "\f812";
}

.la-laravel:before {
  content: "\f3bd";
}

.la-lastfm:before {
  content: "\f202";
}

.la-lastfm-square:before {
  content: "\f203";
}

.la-laugh:before {
  content: "\f599";
}

.la-laugh-beam:before {
  content: "\f59a";
}

.la-laugh-squint:before {
  content: "\f59b";
}

.la-laugh-wink:before {
  content: "\f59c";
}

.la-layer-group:before {
  content: "\f5fd";
}

.la-leaf:before {
  content: "\f06c";
}

.la-leanpub:before {
  content: "\f212";
}

.la-lemon:before {
  content: "\f094";
}

.la-less:before {
  content: "\f41d";
}

.la-less-than:before {
  content: "\f536";
}

.la-less-than-equal:before {
  content: "\f537";
}

.la-level-down-alt:before {
  content: "\f3be";
}

.la-level-up-alt:before {
  content: "\f3bf";
}

.la-life-ring:before {
  content: "\f1cd";
}

.la-lightbulb:before {
  content: "\f0eb";
}

.la-line:before {
  content: "\f3c0";
}

.la-link:before {
  content: "\f0c1";
}

.la-linkedin:before {
  content: "\f08c";
}

.la-linkedin-in:before {
  content: "\f0e1";
}

.la-linode:before {
  content: "\f2b8";
}

.la-linux:before {
  content: "\f17c";
}

.la-lira-sign:before {
  content: "\f195";
}

.la-list:before {
  content: "\f03a";
}

.la-list-alt:before {
  content: "\f022";
}

.la-list-ol:before {
  content: "\f0cb";
}

.la-list-ul:before {
  content: "\f0ca";
}

.la-location-arrow:before {
  content: "\f124";
}

.la-lock:before {
  content: "\f023";
}

.la-lock-open:before {
  content: "\f3c1";
}

.la-long-arrow-alt-down:before {
  content: "\f309";
}

.la-long-arrow-alt-left:before {
  content: "\f30a";
}

.la-long-arrow-alt-right:before {
  content: "\f30b";
}

.la-long-arrow-alt-up:before {
  content: "\f30c";
}

.la-low-vision:before {
  content: "\f2a8";
}

.la-luggage-cart:before {
  content: "\f59d";
}

.la-lyft:before {
  content: "\f3c3";
}

.la-magento:before {
  content: "\f3c4";
}

.la-magic:before {
  content: "\f0d0";
}

.la-magnet:before {
  content: "\f076";
}

.la-mail-bulk:before {
  content: "\f674";
}

.la-mailchimp:before {
  content: "\f59e";
}

.la-male:before {
  content: "\f183";
}

.la-mandalorian:before {
  content: "\f50f";
}

.la-map:before {
  content: "\f279";
}

.la-map-marked:before {
  content: "\f59f";
}

.la-map-marked-alt:before {
  content: "\f5a0";
}

.la-map-marker:before {
  content: "\f041";
}

.la-map-marker-alt:before {
  content: "\f3c5";
}

.la-map-pin:before {
  content: "\f276";
}

.la-map-signs:before {
  content: "\f277";
}

.la-markdown:before {
  content: "\f60f";
}

.la-marker:before {
  content: "\f5a1";
}

.la-mars:before {
  content: "\f222";
}

.la-mars-double:before {
  content: "\f227";
}

.la-mars-stroke:before {
  content: "\f229";
}

.la-mars-stroke-h:before {
  content: "\f22b";
}

.la-mars-stroke-v:before {
  content: "\f22a";
}

.la-mask:before {
  content: "\f6fa";
}

.la-mastodon:before {
  content: "\f4f6";
}

.la-maxcdn:before {
  content: "\f136";
}

.la-mdb:before {
  content: "\f8ca";
}

.la-medal:before {
  content: "\f5a2";
}

.la-medapps:before {
  content: "\f3c6";
}

.la-medium:before {
  content: "\f23a";
}

.la-medium-m:before {
  content: "\f3c7";
}

.la-medkit:before {
  content: "\f0fa";
}

.la-medrt:before {
  content: "\f3c8";
}

.la-meetup:before {
  content: "\f2e0";
}

.la-megaport:before {
  content: "\f5a3";
}

.la-meh:before {
  content: "\f11a";
}

.la-meh-blank:before {
  content: "\f5a4";
}

.la-meh-rolling-eyes:before {
  content: "\f5a5";
}

.la-memory:before {
  content: "\f538";
}

.la-mendeley:before {
  content: "\f7b3";
}

.la-menorah:before {
  content: "\f676";
}

.la-mercury:before {
  content: "\f223";
}

.la-meteor:before {
  content: "\f753";
}

.la-microchip:before {
  content: "\f2db";
}

.la-microphone:before {
  content: "\f130";
}

.la-microphone-alt:before {
  content: "\f3c9";
}

.la-microphone-alt-slash:before {
  content: "\f539";
}

.la-microphone-slash:before {
  content: "\f131";
}

.la-microscope:before {
  content: "\f610";
}

.la-microsoft:before {
  content: "\f3ca";
}

.la-minus:before {
  content: "\f068";
}

.la-minus-circle:before {
  content: "\f056";
}

.la-minus-square:before {
  content: "\f146";
}

.la-mitten:before {
  content: "\f7b5";
}

.la-mix:before {
  content: "\f3cb";
}

.la-mixcloud:before {
  content: "\f289";
}

.la-mizuni:before {
  content: "\f3cc";
}

.la-mobile:before {
  content: "\f10b";
}

.la-mobile-alt:before {
  content: "\f3cd";
}

.la-modx:before {
  content: "\f285";
}

.la-monero:before {
  content: "\f3d0";
}

.la-money-bill:before {
  content: "\f0d6";
}

.la-money-bill-alt:before {
  content: "\f3d1";
}

.la-money-bill-wave:before {
  content: "\f53a";
}

.la-money-bill-wave-alt:before {
  content: "\f53b";
}

.la-money-check:before {
  content: "\f53c";
}

.la-money-check-alt:before {
  content: "\f53d";
}

.la-monument:before {
  content: "\f5a6";
}

.la-moon:before {
  content: "\f186";
}

.la-mortar-pestle:before {
  content: "\f5a7";
}

.la-mosque:before {
  content: "\f678";
}

.la-motorcycle:before {
  content: "\f21c";
}

.la-mountain:before {
  content: "\f6fc";
}

.la-mouse:before {
  content: "\f8cc";
}

.la-mouse-pointer:before {
  content: "\f245";
}

.la-mug-hot:before {
  content: "\f7b6";
}

.la-music:before {
  content: "\f001";
}

.la-napster:before {
  content: "\f3d2";
}

.la-neos:before {
  content: "\f612";
}

.la-network-wired:before {
  content: "\f6ff";
}

.la-neuter:before {
  content: "\f22c";
}

.la-newspaper:before {
  content: "\f1ea";
}

.la-nimblr:before {
  content: "\f5a8";
}

.la-node:before {
  content: "\f419";
}

.la-node-js:before {
  content: "\f3d3";
}

.la-not-equal:before {
  content: "\f53e";
}

.la-notes-medical:before {
  content: "\f481";
}

.la-npm:before {
  content: "\f3d4";
}

.la-ns8:before {
  content: "\f3d5";
}

.la-nutritionix:before {
  content: "\f3d6";
}

.la-object-group:before {
  content: "\f247";
}

.la-object-ungroup:before {
  content: "\f248";
}

.la-odnoklassniki:before {
  content: "\f263";
}

.la-odnoklassniki-square:before {
  content: "\f264";
}

.la-oil-can:before {
  content: "\f613";
}

.la-old-republic:before {
  content: "\f510";
}

.la-om:before {
  content: "\f679";
}

.la-opencart:before {
  content: "\f23d";
}

.la-openid:before {
  content: "\f19b";
}

.la-opera:before {
  content: "\f26a";
}

.la-optin-monster:before {
  content: "\f23c";
}

.la-orcid:before {
  content: "\f8d2";
}

.la-osi:before {
  content: "\f41a";
}

.la-otter:before {
  content: "\f700";
}

.la-outdent:before {
  content: "\f03b";
}

.la-page4:before {
  content: "\f3d7";
}

.la-pagelines:before {
  content: "\f18c";
}

.la-pager:before {
  content: "\f815";
}

.la-paint-brush:before {
  content: "\f1fc";
}

.la-paint-roller:before {
  content: "\f5aa";
}

.la-palette:before {
  content: "\f53f";
}

.la-palfed:before {
  content: "\f3d8";
}

.la-pallet:before {
  content: "\f482";
}

.la-paper-plane:before {
  content: "\f1d8";
}

.la-paperclip:before {
  content: "\f0c6";
}

.la-parachute-box:before {
  content: "\f4cd";
}

.la-paragraph:before {
  content: "\f1dd";
}

.la-parking:before {
  content: "\f540";
}

.la-passport:before {
  content: "\f5ab";
}

.la-pastafarianism:before {
  content: "\f67b";
}

.la-paste:before {
  content: "\f0ea";
}

.la-patreon:before {
  content: "\f3d9";
}

.la-pause:before {
  content: "\f04c";
}

.la-pause-circle:before {
  content: "\f28b";
}

.la-paw:before {
  content: "\f1b0";
}

.la-paypal:before {
  content: "\f1ed";
}

.la-peace:before {
  content: "\f67c";
}

.la-pen:before {
  content: "\f304";
}

.la-pen-alt:before {
  content: "\f305";
}

.la-pen-fancy:before {
  content: "\f5ac";
}

.la-pen-nib:before {
  content: "\f5ad";
}

.la-pen-square:before {
  content: "\f14b";
}

.la-pencil-alt:before {
  content: "\f303";
}

.la-pencil-ruler:before {
  content: "\f5ae";
}

.la-penny-arcade:before {
  content: "\f704";
}

.la-people-carry:before {
  content: "\f4ce";
}

.la-pepper-hot:before {
  content: "\f816";
}

.la-percent:before {
  content: "\f295";
}

.la-percentage:before {
  content: "\f541";
}

.la-periscope:before {
  content: "\f3da";
}

.la-person-booth:before {
  content: "\f756";
}

.la-phabricator:before {
  content: "\f3db";
}

.la-phoenix-framework:before {
  content: "\f3dc";
}

.la-phoenix-squadron:before {
  content: "\f511";
}

.la-phone:before {
  content: "\f095";
}

.la-phone-alt:before {
  content: "\f879";
}

.la-phone-slash:before {
  content: "\f3dd";
}

.la-phone-square:before {
  content: "\f098";
}

.la-phone-square-alt:before {
  content: "\f87b";
}

.la-phone-volume:before {
  content: "\f2a0";
}

.la-photo-video:before {
  content: "\f87c";
}

.la-php:before {
  content: "\f457";
}

.la-pied-piper:before {
  content: "\f2ae";
}

.la-pied-piper-alt:before {
  content: "\f1a8";
}

.la-pied-piper-hat:before {
  content: "\f4e5";
}

.la-pied-piper-pp:before {
  content: "\f1a7";
}

.la-piggy-bank:before {
  content: "\f4d3";
}

.la-pills:before {
  content: "\f484";
}

.la-pinterest:before {
  content: "\f0d2";
}

.la-pinterest-p:before {
  content: "\f231";
}

.la-pinterest-square:before {
  content: "\f0d3";
}

.la-pizza-slice:before {
  content: "\f818";
}

.la-place-of-worship:before {
  content: "\f67f";
}

.la-plane:before {
  content: "\f072";
}

.la-plane-arrival:before {
  content: "\f5af";
}

.la-plane-departure:before {
  content: "\f5b0";
}

.la-play:before {
  content: "\f04b";
}

.la-play-circle:before {
  content: "\f144";
}

.la-playstation:before {
  content: "\f3df";
}

.la-plug:before {
  content: "\f1e6";
}

.la-plus:before {
  content: "\f067";
}

.la-plus-circle:before {
  content: "\f055";
}

.la-plus-square:before {
  content: "\f0fe";
}

.la-podcast:before {
  content: "\f2ce";
}

.la-poll:before {
  content: "\f681";
}

.la-poll-h:before {
  content: "\f682";
}

.la-poo:before {
  content: "\f2fe";
}

.la-poo-storm:before {
  content: "\f75a";
}

.la-poop:before {
  content: "\f619";
}

.la-portrait:before {
  content: "\f3e0";
}

.la-pound-sign:before {
  content: "\f154";
}

.la-power-off:before {
  content: "\f011";
}

.la-pray:before {
  content: "\f683";
}

.la-praying-hands:before {
  content: "\f684";
}

.la-prescription:before {
  content: "\f5b1";
}

.la-prescription-bottle:before {
  content: "\f485";
}

.la-prescription-bottle-alt:before {
  content: "\f486";
}

.la-print:before {
  content: "\f02f";
}

.la-procedures:before {
  content: "\f487";
}

.la-product-hunt:before {
  content: "\f288";
}

.la-project-diagram:before {
  content: "\f542";
}

.la-pushed:before {
  content: "\f3e1";
}

.la-puzzle-piece:before {
  content: "\f12e";
}

.la-python:before {
  content: "\f3e2";
}

.la-qq:before {
  content: "\f1d6";
}

.la-qrcode:before {
  content: "\f029";
}

.la-question:before {
  content: "\f128";
}

.la-question-circle:before {
  content: "\f059";
}

.la-quidditch:before {
  content: "\f458";
}

.la-quinscape:before {
  content: "\f459";
}

.la-quora:before {
  content: "\f2c4";
}

.la-quote-left:before {
  content: "\f10d";
}

.la-quote-right:before {
  content: "\f10e";
}

.la-quran:before {
  content: "\f687";
}

.la-r-project:before {
  content: "\f4f7";
}

.la-radiation:before {
  content: "\f7b9";
}

.la-radiation-alt:before {
  content: "\f7ba";
}

.la-rainbow:before {
  content: "\f75b";
}

.la-random:before {
  content: "\f074";
}

.la-raspberry-pi:before {
  content: "\f7bb";
}

.la-ravelry:before {
  content: "\f2d9";
}

.la-react:before {
  content: "\f41b";
}

.la-reacteurope:before {
  content: "\f75d";
}

.la-readme:before {
  content: "\f4d5";
}

.la-rebel:before {
  content: "\f1d0";
}

.la-receipt:before {
  content: "\f543";
}

.la-record-vinyl:before {
  content: "\f8d9";
}

.la-recycle:before {
  content: "\f1b8";
}

.la-red-river:before {
  content: "\f3e3";
}

.la-reddit:before {
  content: "\f1a1";
}

.la-reddit-alien:before {
  content: "\f281";
}

.la-reddit-square:before {
  content: "\f1a2";
}

.la-redhat:before {
  content: "\f7bc";
}

.la-redo:before {
  content: "\f01e";
}

.la-redo-alt:before {
  content: "\f2f9";
}

.la-registered:before {
  content: "\f25d";
}

.la-remove-format:before {
  content: "\f87d";
}

.la-renren:before {
  content: "\f18b";
}

.la-reply:before {
  content: "\f3e5";
}

.la-reply-all:before {
  content: "\f122";
}

.la-replyd:before {
  content: "\f3e6";
}

.la-republican:before {
  content: "\f75e";
}

.la-researchgate:before {
  content: "\f4f8";
}

.la-resolving:before {
  content: "\f3e7";
}

.la-restroom:before {
  content: "\f7bd";
}

.la-retweet:before {
  content: "\f079";
}

.la-rev:before {
  content: "\f5b2";
}

.la-ribbon:before {
  content: "\f4d6";
}

.la-ring:before {
  content: "\f70b";
}

.la-road:before {
  content: "\f018";
}

.la-robot:before {
  content: "\f544";
}

.la-rocket:before {
  content: "\f135";
}

.la-rocketchat:before {
  content: "\f3e8";
}

.la-rockrms:before {
  content: "\f3e9";
}

.la-route:before {
  content: "\f4d7";
}

.la-rss:before {
  content: "\f09e";
}

.la-rss-square:before {
  content: "\f143";
}

.la-ruble-sign:before {
  content: "\f158";
}

.la-ruler:before {
  content: "\f545";
}

.la-ruler-combined:before {
  content: "\f546";
}

.la-ruler-horizontal:before {
  content: "\f547";
}

.la-ruler-vertical:before {
  content: "\f548";
}

.la-running:before {
  content: "\f70c";
}

.la-rupee-sign:before {
  content: "\f156";
}

.la-sad-cry:before {
  content: "\f5b3";
}

.la-sad-tear:before {
  content: "\f5b4";
}

.la-safari:before {
  content: "\f267";
}

.la-salesforce:before {
  content: "\f83b";
}

.la-sass:before {
  content: "\f41e";
}

.la-satellite:before {
  content: "\f7bf";
}

.la-satellite-dish:before {
  content: "\f7c0";
}

.la-save:before {
  content: "\f0c7";
}

.la-schlix:before {
  content: "\f3ea";
}

.la-school:before {
  content: "\f549";
}

.la-screwdriver:before {
  content: "\f54a";
}

.la-scribd:before {
  content: "\f28a";
}

.la-scroll:before {
  content: "\f70e";
}

.la-sd-card:before {
  content: "\f7c2";
}

.la-search:before {
  content: "\f002";
}

.la-search-dollar:before {
  content: "\f688";
}

.la-search-location:before {
  content: "\f689";
}

.la-search-minus:before {
  content: "\f010";
}

.la-search-plus:before {
  content: "\f00e";
}

.la-searchengin:before {
  content: "\f3eb";
}

.la-seedling:before {
  content: "\f4d8";
}

.la-sellcast:before {
  content: "\f2da";
}

.la-sellsy:before {
  content: "\f213";
}

.la-server:before {
  content: "\f233";
}

.la-servicestack:before {
  content: "\f3ec";
}

.la-shapes:before {
  content: "\f61f";
}

.la-share:before {
  content: "\f064";
}

.la-share-alt:before {
  content: "\f1e0";
}

.la-share-alt-square:before {
  content: "\f1e1";
}

.la-share-square:before {
  content: "\f14d";
}

.la-shekel-sign:before {
  content: "\f20b";
}

.la-shield-alt:before {
  content: "\f3ed";
}

.la-ship:before {
  content: "\f21a";
}

.la-shipping-fast:before {
  content: "\f48b";
}

.la-shirtsinbulk:before {
  content: "\f214";
}

.la-shoe-prints:before {
  content: "\f54b";
}

.la-shopping-bag:before {
  content: "\f290";
}

.la-shopping-basket:before {
  content: "\f291";
}

.la-shopping-cart:before {
  content: "\f07a";
}

.la-shopware:before {
  content: "\f5b5";
}

.la-shower:before {
  content: "\f2cc";
}

.la-shuttle-van:before {
  content: "\f5b6";
}

.la-sign:before {
  content: "\f4d9";
}

.la-sign-in-alt:before {
  content: "\f2f6";
}

.la-sign-language:before {
  content: "\f2a7";
}

.la-sign-out-alt:before {
  content: "\f2f5";
}

.la-signal:before {
  content: "\f012";
}

.la-signature:before {
  content: "\f5b7";
}

.la-sim-card:before {
  content: "\f7c4";
}

.la-simplybuilt:before {
  content: "\f215";
}

.la-sistrix:before {
  content: "\f3ee";
}

.la-sitemap:before {
  content: "\f0e8";
}

.la-sith:before {
  content: "\f512";
}

.la-skating:before {
  content: "\f7c5";
}

.la-sketch:before {
  content: "\f7c6";
}

.la-skiing:before {
  content: "\f7c9";
}

.la-skiing-nordic:before {
  content: "\f7ca";
}

.la-skull:before {
  content: "\f54c";
}

.la-skull-crossbones:before {
  content: "\f714";
}

.la-skyatlas:before {
  content: "\f216";
}

.la-skype:before {
  content: "\f17e";
}

.la-slack:before {
  content: "\f198";
}

.la-slack-hash:before {
  content: "\f3ef";
}

.la-slash:before {
  content: "\f715";
}

.la-sleigh:before {
  content: "\f7cc";
}

.la-sliders-h:before {
  content: "\f1de";
}

.la-slideshare:before {
  content: "\f1e7";
}

.la-smile:before {
  content: "\f118";
}

.la-smile-beam:before {
  content: "\f5b8";
}

.la-smile-wink:before {
  content: "\f4da";
}

.la-smog:before {
  content: "\f75f";
}

.la-smoking:before {
  content: "\f48d";
}

.la-smoking-ban:before {
  content: "\f54d";
}

.la-sms:before {
  content: "\f7cd";
}

.la-snapchat:before {
  content: "\f2ab";
}

.la-snapchat-ghost:before {
  content: "\f2ac";
}

.la-snapchat-square:before {
  content: "\f2ad";
}

.la-snowboarding:before {
  content: "\f7ce";
}

.la-snowflake:before {
  content: "\f2dc";
}

.la-snowman:before {
  content: "\f7d0";
}

.la-snowplow:before {
  content: "\f7d2";
}

.la-socks:before {
  content: "\f696";
}

.la-solar-panel:before {
  content: "\f5ba";
}

.la-sort:before {
  content: "\f0dc";
}

.la-sort-alpha-down:before {
  content: "\f15d";
}

.la-sort-alpha-down-alt:before {
  content: "\f881";
}

.la-sort-alpha-up:before {
  content: "\f15e";
}

.la-sort-alpha-up-alt:before {
  content: "\f882";
}

.la-sort-amount-down:before {
  content: "\f160";
}

.la-sort-amount-down-alt:before {
  content: "\f884";
}

.la-sort-amount-up:before {
  content: "\f161";
}

.la-sort-amount-up-alt:before {
  content: "\f885";
}

.la-sort-down:before {
  content: "\f0dd";
}

.la-sort-numeric-down:before {
  content: "\f162";
}

.la-sort-numeric-down-alt:before {
  content: "\f886";
}

.la-sort-numeric-up:before {
  content: "\f163";
}

.la-sort-numeric-up-alt:before {
  content: "\f887";
}

.la-sort-up:before {
  content: "\f0de";
}

.la-soundcloud:before {
  content: "\f1be";
}

.la-sourcetree:before {
  content: "\f7d3";
}

.la-spa:before {
  content: "\f5bb";
}

.la-space-shuttle:before {
  content: "\f197";
}

.la-speakap:before {
  content: "\f3f3";
}

.la-speaker-deck:before {
  content: "\f83c";
}

.la-spell-check:before {
  content: "\f891";
}

.la-spider:before {
  content: "\f717";
}

.la-spinner:before {
  content: "\f110";
}

.la-splotch:before {
  content: "\f5bc";
}

.la-spotify:before {
  content: "\f1bc";
}

.la-spray-can:before {
  content: "\f5bd";
}

.la-square:before {
  content: "\f0c8";
}

.la-square-full:before {
  content: "\f45c";
}

.la-square-root-alt:before {
  content: "\f698";
}

.la-squarespace:before {
  content: "\f5be";
}

.la-stack-exchange:before {
  content: "\f18d";
}

.la-stack-overflow:before {
  content: "\f16c";
}

.la-stackpath:before {
  content: "\f842";
}

.la-stamp:before {
  content: "\f5bf";
}

.la-star:before {
  content: "\f005";
}

.la-star-and-crescent:before {
  content: "\f699";
}

.la-star-half:before {
  content: "\f089";
}

.la-star-half-alt:before {
  content: "\f5c0";
}

.la-star-of-david:before {
  content: "\f69a";
}

.la-star-of-life:before {
  content: "\f621";
}

.la-staylinked:before {
  content: "\f3f5";
}

.la-steam:before {
  content: "\f1b6";
}

.la-steam-square:before {
  content: "\f1b7";
}

.la-steam-symbol:before {
  content: "\f3f6";
}

.la-step-backward:before {
  content: "\f048";
}

.la-step-forward:before {
  content: "\f051";
}

.la-stethoscope:before {
  content: "\f0f1";
}

.la-sticker-mule:before {
  content: "\f3f7";
}

.la-sticky-note:before {
  content: "\f249";
}

.la-stop:before {
  content: "\f04d";
}

.la-stop-circle:before {
  content: "\f28d";
}

.la-stopwatch:before {
  content: "\f2f2";
}

.la-store:before {
  content: "\f54e";
}

.la-store-alt:before {
  content: "\f54f";
}

.la-strava:before {
  content: "\f428";
}

.la-stream:before {
  content: "\f550";
}

.la-street-view:before {
  content: "\f21d";
}

.la-strikethrough:before {
  content: "\f0cc";
}

.la-stripe:before {
  content: "\f429";
}

.la-stripe-s:before {
  content: "\f42a";
}

.la-stroopwafel:before {
  content: "\f551";
}

.la-studiovinari:before {
  content: "\f3f8";
}

.la-stumbleupon:before {
  content: "\f1a4";
}

.la-stumbleupon-circle:before {
  content: "\f1a3";
}

.la-subscript:before {
  content: "\f12c";
}

.la-subway:before {
  content: "\f239";
}

.la-suitcase:before {
  content: "\f0f2";
}

.la-suitcase-rolling:before {
  content: "\f5c1";
}

.la-sun:before {
  content: "\f185";
}

.la-superpowers:before {
  content: "\f2dd";
}

.la-superscript:before {
  content: "\f12b";
}

.la-supple:before {
  content: "\f3f9";
}

.la-surprise:before {
  content: "\f5c2";
}

.la-suse:before {
  content: "\f7d6";
}

.la-swatchbook:before {
  content: "\f5c3";
}

.la-swift:before {
  content: "\f8e1";
}

.la-swimmer:before {
  content: "\f5c4";
}

.la-swimming-pool:before {
  content: "\f5c5";
}

.la-symfony:before {
  content: "\f83d";
}

.la-synagogue:before {
  content: "\f69b";
}

.la-sync:before {
  content: "\f021";
}

.la-sync-alt:before {
  content: "\f2f1";
}

.la-syringe:before {
  content: "\f48e";
}

.la-table:before {
  content: "\f0ce";
}

.la-table-tennis:before {
  content: "\f45d";
}

.la-tablet:before {
  content: "\f10a";
}

.la-tablet-alt:before {
  content: "\f3fa";
}

.la-tablets:before {
  content: "\f490";
}

.la-tachometer-alt:before {
  content: "\f3fd";
}

.la-tag:before {
  content: "\f02b";
}

.la-tags:before {
  content: "\f02c";
}

.la-tape:before {
  content: "\f4db";
}

.la-tasks:before {
  content: "\f0ae";
}

.la-taxi:before {
  content: "\f1ba";
}

.la-teamspeak:before {
  content: "\f4f9";
}

.la-teeth:before {
  content: "\f62e";
}

.la-teeth-open:before {
  content: "\f62f";
}

.la-telegram:before {
  content: "\f2c6";
}

.la-telegram-plane:before {
  content: "\f3fe";
}

.la-temperature-high:before {
  content: "\f769";
}

.la-temperature-low:before {
  content: "\f76b";
}

.la-tencent-weibo:before {
  content: "\f1d5";
}

.la-tenge:before {
  content: "\f7d7";
}

.la-terminal:before {
  content: "\f120";
}

.la-text-height:before {
  content: "\f034";
}

.la-text-width:before {
  content: "\f035";
}

.la-th:before {
  content: "\f00a";
}

.la-th-large:before {
  content: "\f009";
}

.la-th-list:before {
  content: "\f00b";
}

.la-the-red-yeti:before {
  content: "\f69d";
}

.la-theater-masks:before {
  content: "\f630";
}

.la-themeco:before {
  content: "\f5c6";
}

.la-themeisle:before {
  content: "\f2b2";
}

.la-thermometer:before {
  content: "\f491";
}

.la-thermometer-empty:before {
  content: "\f2cb";
}

.la-thermometer-full:before {
  content: "\f2c7";
}

.la-thermometer-half:before {
  content: "\f2c9";
}

.la-thermometer-quarter:before {
  content: "\f2ca";
}

.la-thermometer-three-quarters:before {
  content: "\f2c8";
}

.la-think-peaks:before {
  content: "\f731";
}

.la-thumbs-down:before {
  content: "\f165";
}

.la-thumbs-up:before {
  content: "\f164";
}

.la-thumbtack:before {
  content: "\f08d";
}

.la-ticket-alt:before {
  content: "\f3ff";
}

.la-times:before {
  content: "\f00d";
}

.la-times-circle:before {
  content: "\f057";
}

.la-tint:before {
  content: "\f043";
}

.la-tint-slash:before {
  content: "\f5c7";
}

.la-tired:before {
  content: "\f5c8";
}

.la-toggle-off:before {
  content: "\f204";
}

.la-toggle-on:before {
  content: "\f205";
}

.la-toilet:before {
  content: "\f7d8";
}

.la-toilet-paper:before {
  content: "\f71e";
}

.la-toolbox:before {
  content: "\f552";
}

.la-tools:before {
  content: "\f7d9";
}

.la-tooth:before {
  content: "\f5c9";
}

.la-torah:before {
  content: "\f6a0";
}

.la-torii-gate:before {
  content: "\f6a1";
}

.la-tractor:before {
  content: "\f722";
}

.la-trade-federation:before {
  content: "\f513";
}

.la-trademark:before {
  content: "\f25c";
}

.la-traffic-light:before {
  content: "\f637";
}

.la-train:before {
  content: "\f238";
}

.la-tram:before {
  content: "\f7da";
}

.la-transgender:before {
  content: "\f224";
}

.la-transgender-alt:before {
  content: "\f225";
}

.la-trash:before {
  content: "\f1f8";
}

.la-trash-alt:before {
  content: "\f2ed";
}

.la-trash-restore:before {
  content: "\f829";
}

.la-trash-restore-alt:before {
  content: "\f82a";
}

.la-tree:before {
  content: "\f1bb";
}

.la-trello:before {
  content: "\f181";
}

.la-tripadvisor:before {
  content: "\f262";
}

.la-trophy:before {
  content: "\f091";
}

.la-truck:before {
  content: "\f0d1";
}

.la-truck-loading:before {
  content: "\f4de";
}

.la-truck-monster:before {
  content: "\f63b";
}

.la-truck-moving:before {
  content: "\f4df";
}

.la-truck-pickup:before {
  content: "\f63c";
}

.la-tshirt:before {
  content: "\f553";
}

.la-tty:before {
  content: "\f1e4";
}

.la-tumblr:before {
  content: "\f173";
}

.la-tumblr-square:before {
  content: "\f174";
}

.la-tv:before {
  content: "\f26c";
}

.la-twitch:before {
  content: "\f1e8";
}

.la-twitter:before {
  content: "\f099";
}

.la-twitter-square:before {
  content: "\f081";
}

.la-typo3:before {
  content: "\f42b";
}

.la-uber:before {
  content: "\f402";
}

.la-ubuntu:before {
  content: "\f7df";
}

.la-uikit:before {
  content: "\f403";
}

.la-umbraco:before {
  content: "\f8e8";
}

.la-umbrella:before {
  content: "\f0e9";
}

.la-umbrella-beach:before {
  content: "\f5ca";
}

.la-underline:before {
  content: "\f0cd";
}

.la-undo:before {
  content: "\f0e2";
}

.la-undo-alt:before {
  content: "\f2ea";
}

.la-uniregistry:before {
  content: "\f404";
}

.la-universal-access:before {
  content: "\f29a";
}

.la-university:before {
  content: "\f19c";
}

.la-unlink:before {
  content: "\f127";
}

.la-unlock:before {
  content: "\f09c";
}

.la-unlock-alt:before {
  content: "\f13e";
}

.la-untappd:before {
  content: "\f405";
}

.la-upload:before {
  content: "\f093";
}

.la-ups:before {
  content: "\f7e0";
}

.la-usb:before {
  content: "\f287";
}

.la-user:before {
  content: "\f007";
}

.la-user-alt:before {
  content: "\f406";
}

.la-user-alt-slash:before {
  content: "\f4fa";
}

.la-user-astronaut:before {
  content: "\f4fb";
}

.la-user-check:before {
  content: "\f4fc";
}

.la-user-circle:before {
  content: "\f2bd";
}

.la-user-clock:before {
  content: "\f4fd";
}

.la-user-cog:before {
  content: "\f4fe";
}

.la-user-edit:before {
  content: "\f4ff";
}

.la-user-friends:before {
  content: "\f500";
}

.la-user-graduate:before {
  content: "\f501";
}

.la-user-injured:before {
  content: "\f728";
}

.la-user-lock:before {
  content: "\f502";
}

.la-user-md:before {
  content: "\f0f0";
}

.la-user-minus:before {
  content: "\f503";
}

.la-user-ninja:before {
  content: "\f504";
}

.la-user-nurse:before {
  content: "\f82f";
}

.la-user-plus:before {
  content: "\f234";
}

.la-user-secret:before {
  content: "\f21b";
}

.la-user-shield:before {
  content: "\f505";
}

.la-user-slash:before {
  content: "\f506";
}

.la-user-tag:before {
  content: "\f507";
}

.la-user-tie:before {
  content: "\f508";
}

.la-user-times:before {
  content: "\f235";
}

.la-users:before {
  content: "\f0c0";
}

.la-users-cog:before {
  content: "\f509";
}

.la-usps:before {
  content: "\f7e1";
}

.la-ussunnah:before {
  content: "\f407";
}

.la-utensil-spoon:before {
  content: "\f2e5";
}

.la-utensils:before {
  content: "\f2e7";
}

.la-vaadin:before {
  content: "\f408";
}

.la-vector-square:before {
  content: "\f5cb";
}

.la-venus:before {
  content: "\f221";
}

.la-venus-double:before {
  content: "\f226";
}

.la-venus-mars:before {
  content: "\f228";
}

.la-viacoin:before {
  content: "\f237";
}

.la-viadeo:before {
  content: "\f2a9";
}

.la-viadeo-square:before {
  content: "\f2aa";
}

.la-vial:before {
  content: "\f492";
}

.la-vials:before {
  content: "\f493";
}

.la-viber:before {
  content: "\f409";
}

.la-video:before {
  content: "\f03d";
}

.la-video-slash:before {
  content: "\f4e2";
}

.la-vihara:before {
  content: "\f6a7";
}

.la-vimeo:before {
  content: "\f40a";
}

.la-vimeo-square:before {
  content: "\f194";
}

.la-vimeo-v:before {
  content: "\f27d";
}

.la-vine:before {
  content: "\f1ca";
}

.la-vk:before {
  content: "\f189";
}

.la-vnv:before {
  content: "\f40b";
}

.la-voicemail:before {
  content: "\f897";
}

.la-volleyball-ball:before {
  content: "\f45f";
}

.la-volume-down:before {
  content: "\f027";
}

.la-volume-mute:before {
  content: "\f6a9";
}

.la-volume-off:before {
  content: "\f026";
}

.la-volume-up:before {
  content: "\f028";
}

.la-vote-yea:before {
  content: "\f772";
}

.la-vr-cardboard:before {
  content: "\f729";
}

.la-vuejs:before {
  content: "\f41f";
}

.la-walking:before {
  content: "\f554";
}

.la-wallet:before {
  content: "\f555";
}

.la-warehouse:before {
  content: "\f494";
}

.la-water:before {
  content: "\f773";
}

.la-wave-square:before {
  content: "\f83e";
}

.la-waze:before {
  content: "\f83f";
}

.la-weebly:before {
  content: "\f5cc";
}

.la-weibo:before {
  content: "\f18a";
}

.la-weight:before {
  content: "\f496";
}

.la-weight-hanging:before {
  content: "\f5cd";
}

.la-weixin:before {
  content: "\f1d7";
}

.la-whatsapp:before {
  content: "\f232";
}

.la-whatsapp-square:before {
  content: "\f40c";
}

.la-wheelchair:before {
  content: "\f193";
}

.la-whmcs:before {
  content: "\f40d";
}

.la-wifi:before {
  content: "\f1eb";
}

.la-wikipedia-w:before {
  content: "\f266";
}

.la-wind:before {
  content: "\f72e";
}

.la-window-close:before {
  content: "\f410";
}

.la-window-maximize:before {
  content: "\f2d0";
}

.la-window-minimize:before {
  content: "\f2d1";
}

.la-window-restore:before {
  content: "\f2d2";
}

.la-windows:before {
  content: "\f17a";
}

.la-wine-bottle:before {
  content: "\f72f";
}

.la-wine-glass:before {
  content: "\f4e3";
}

.la-wine-glass-alt:before {
  content: "\f5ce";
}

.la-wix:before {
  content: "\f5cf";
}

.la-wizards-of-the-coast:before {
  content: "\f730";
}

.la-wolf-pack-battalion:before {
  content: "\f514";
}

.la-won-sign:before {
  content: "\f159";
}

.la-wordpress:before {
  content: "\f19a";
}

.la-wordpress-simple:before {
  content: "\f411";
}

.la-wpbeginner:before {
  content: "\f297";
}

.la-wpexplorer:before {
  content: "\f2de";
}

.la-wpforms:before {
  content: "\f298";
}

.la-wpressr:before {
  content: "\f3e4";
}

.la-wrench:before {
  content: "\f0ad";
}

.la-x-ray:before {
  content: "\f497";
}

.la-xbox:before {
  content: "\f412";
}

.la-xing:before {
  content: "\f168";
}

.la-xing-square:before {
  content: "\f169";
}

.la-y-combinator:before {
  content: "\f23b";
}

.la-yahoo:before {
  content: "\f19e";
}

.la-yammer:before {
  content: "\f840";
}

.la-yandex:before {
  content: "\f413";
}

.la-yandex-international:before {
  content: "\f414";
}

.la-yarn:before {
  content: "\f7e3";
}

.la-yelp:before {
  content: "\f1e9";
}

.la-yen-sign:before {
  content: "\f157";
}

.la-yin-yang:before {
  content: "\f6ad";
}

.la-yoast:before {
  content: "\f2b1";
}

.la-youtube:before {
  content: "\f167";
}

.la-youtube-square:before {
  content: "\f431";
}

.la-zhihu:before {
  content: "\f63f";
}

.sr-only {
  border: 0;
  clip: rect(0, 0, 0, 0);
  height: 1px;
  margin: -1px;
  overflow: hidden;
  padding: 0;
  position: absolute;
  width: 1px;
}

.sr-only-focusable:active,
.sr-only-focusable:focus {
  clip: auto;
  height: auto;
  margin: 0;
  overflow: visible;
  position: static;
  width: auto;
}

@font-face {
  font-family: "Line Awesome Brands";
  font-style: normal;
  font-weight: 400;
  font-display: auto;
  src: url(../fonts/la-brands-400.eot);
  src: url(../fonts/la-brands-400.eot?#iefix) format("embedded-opentype"),
    url(../fonts/la-brands-400.woff2) format("woff2"),
    url(../fonts/la-brands-400.woff) format("woff"),
    url(../fonts/la-brands-400.ttf) format("truetype"),
    url(../fonts/la-brands-400.svg#lineawesome) format("svg");
}

.lab {
  font-family: "Line Awesome Brands";
}

@font-face {
  font-family: "Line Awesome Free";
  font-style: normal;
  font-weight: 400;
  font-display: auto;
  src: url(../fonts/la-regular-400.eot);
  src: url(../fonts/la-regular-400.eot?#iefix) format("embedded-opentype"),
    url(../fonts/la-regular-400.woff2) format("woff2"),
    url(../fonts/la-regular-400.woff) format("woff"),
    url(../fonts/la-regular-400.ttf) format("truetype"),
    url(../fonts/la-regular-400.svg#lineawesome) format("svg");
}

.lar {
  font-family: "Line Awesome Free";
  font-weight: 400;
}

@font-face {
  font-family: "Line Awesome Free";
  font-style: normal;
  font-weight: 900;
  font-display: auto;
  src: url(../fonts/la-solid-900.eot);
  src: url(../fonts/la-solid-900.eot?#iefix) format("embedded-opentype"),
    url(../fonts/la-solid-900.woff2) format("woff2"),
    url(../fonts/la-solid-900.woff) format("woff"),
    url(../fonts/la-solid-900.ttf) format("truetype"),
    url(../fonts/la-solid-900.svg#lineawesome) format("svg");
}

.la,
.las {
  font-family: "Line Awesome Free";
  font-weight: 900;
}

.la.la-glass:before {
  content: "\f000";
}

.la.la-meetup {
  font-family: "Line Awesome Brands";
  font-weight: 400;
}

.la.la-star-o {
  font-family: "Line Awesome Free";
  font-weight: 400;
}

.la.la-star-o:before {
  content: "\f005";
}

.la.la-remove:before {
  content: "\f00d";
}

.la.la-close:before {
  content: "\f00d";
}

.la.la-gear:before {
  content: "\f013";
}

.la.la-trash-o {
  font-family: "Line Awesome Free";
  font-weight: 400;
}

.la.la-trash-o:before {
  content: "\f2ed";
}

.la.la-file-o {
  font-family: "Line Awesome Free";
  font-weight: 400;
}

.la.la-file-o:before {
  content: "\f15b";
}

.la.la-clock-o {
  font-family: "Line Awesome Free";
  font-weight: 400;
}

.la.la-clock-o:before {
  content: "\f017";
}

.la.la-arrow-circle-o-down {
  font-family: "Line Awesome Free";
  font-weight: 400;
}

.la.la-arrow-circle-o-down:before {
  content: "\f358";
}

.la.la-arrow-circle-o-up {
  font-family: "Line Awesome Free";
  font-weight: 400;
}

.la.la-arrow-circle-o-up:before {
  content: "\f35b";
}

.la.la-play-circle-o {
  font-family: "Line Awesome Free";
  font-weight: 400;
}

.la.la-play-circle-o:before {
  content: "\f144";
}

.la.la-repeat:before {
  content: "\f01e";
}

.la.la-rotate-right:before {
  content: "\f01e";
}

.la.la-refresh:before {
  content: "\f021";
}

.la.la-list-alt {
  font-family: "Line Awesome Free";
  font-weight: 400;
}

.la.la-dedent:before {
  content: "\f03b";
}

.la.la-video-camera:before {
  content: "\f03d";
}

.la.la-picture-o {
  font-family: "Line Awesome Free";
  font-weight: 400;
}

.la.la-picture-o:before {
  content: "\f03e";
}

.la.la-photo {
  font-family: "Line Awesome Free";
  font-weight: 400;
}

.la.la-photo:before {
  content: "\f03e";
}

.la.la-image {
  font-family: "Line Awesome Free";
  font-weight: 400;
}

.la.la-image:before {
  content: "\f03e";
}

.la.la-pencil:before {
  content: "\f303";
}

.la.la-map-marker:before {
  content: "\f3c5";
}

.la.la-pencil-square-o {
  font-family: "Line Awesome Free";
  font-weight: 400;
}

.la.la-pencil-square-o:before {
  content: "\f044";
}

.la.la-share-square-o {
  font-family: "Line Awesome Free";
  font-weight: 400;
}

.la.la-share-square-o:before {
  content: "\f14d";
}

.la.la-check-square-o {
  font-family: "Line Awesome Free";
  font-weight: 400;
}

.la.la-check-square-o:before {
  content: "\f14a";
}

.la.la-arrows:before {
  content: "\f0b2";
}

.la.la-times-circle-o {
  font-family: "Line Awesome Free";
  font-weight: 400;
}

.la.la-times-circle-o:before {
  content: "\f057";
}

.la.la-check-circle-o {
  font-family: "Line Awesome Free";
  font-weight: 400;
}

.la.la-check-circle-o:before {
  content: "\f058";
}

.la.la-mail-forward:before {
  content: "\f064";
}

.la.la-eye {
  font-family: "Line Awesome Free";
  font-weight: 400;
}

.la.la-eye-slash {
  font-family: "Line Awesome Free";
  font-weight: 400;
}

.la.la-warning:before {
  content: "\f071";
}

.la.la-calendar:before {
  content: "\f073";
}

.la.la-arrows-v:before {
  content: "\f338";
}

.la.la-arrows-h:before {
  content: "\f337";
}

.la.la-bar-chart {
  font-family: "Line Awesome Free";
  font-weight: 400;
}

.la.la-bar-chart:before {
  content: "\f080";
}

.la.la-bar-chart-o {
  font-family: "Line Awesome Free";
  font-weight: 400;
}

.la.la-bar-chart-o:before {
  content: "\f080";
}

.la.la-twitter-square {
  font-family: "Line Awesome Brands";
  font-weight: 400;
}

.la.la-facebook-square {
  font-family: "Line Awesome Brands";
  font-weight: 400;
}

.la.la-gears:before {
  content: "\f085";
}

.la.la-thumbs-o-up {
  font-family: "Line Awesome Free";
  font-weight: 400;
}

.la.la-thumbs-o-up:before {
  content: "\f164";
}

.la.la-thumbs-o-down {
  font-family: "Line Awesome Free";
  font-weight: 400;
}

.la.la-thumbs-o-down:before {
  content: "\f165";
}

.la.la-heart-o {
  font-family: "Line Awesome Free";
  font-weight: 400;
}

.la.la-heart-o:before {
  content: "\f004";
}

.la.la-sign-out:before {
  content: "\f2f5";
}

.la.la-linkedin-square {
  font-family: "Line Awesome Brands";
  font-weight: 400;
}

.la.la-linkedin-square:before {
  content: "\f08c";
}

.la.la-thumb-tack:before {
  content: "\f08d";
}

.la.la-external-link:before {
  content: "\f35d";
}

.la.la-sign-in:before {
  content: "\f2f6";
}

.la.la-github-square {
  font-family: "Line Awesome Brands";
  font-weight: 400;
}

.la.la-lemon-o {
  font-family: "Line Awesome Free";
  font-weight: 400;
}

.la.la-lemon-o:before {
  content: "\f094";
}

.la.la-square-o {
  font-family: "Line Awesome Free";
  font-weight: 400;
}

.la.la-square-o:before {
  content: "\f0c8";
}

.la.la-bookmark-o {
  font-family: "Line Awesome Free";
  font-weight: 400;
}

.la.la-bookmark-o:before {
  content: "\f02e";
}

.la.la-twitter {
  font-family: "Line Awesome Brands";
  font-weight: 400;
}

.la.la-facebook {
  font-family: "Line Awesome Brands";
  font-weight: 400;
}

.la.la-facebook:before {
  content: "\f39e";
}

.la.la-facebook-f {
  font-family: "Line Awesome Brands";
  font-weight: 400;
}

.la.la-facebook-f:before {
  content: "\f39e";
}

.la.la-github {
  font-family: "Line Awesome Brands";
  font-weight: 400;
}

.la.la-credit-card {
  font-family: "Line Awesome Free";
  font-weight: 400;
}

.la.la-feed:before {
  content: "\f09e";
}

.la.la-hdd-o {
  font-family: "Line Awesome Free";
  font-weight: 400;
}

.la.la-hdd-o:before {
  content: "\f0a0";
}

.la.la-hand-o-right {
  font-family: "Line Awesome Free";
  font-weight: 400;
}

.la.la-hand-o-right:before {
  content: "\f0a4";
}

.la.la-hand-o-left {
  font-family: "Line Awesome Free";
  font-weight: 400;
}

.la.la-hand-o-left:before {
  content: "\f0a5";
}

.la.la-hand-o-up {
  font-family: "Line Awesome Free";
  font-weight: 400;
}

.la.la-hand-o-up:before {
  content: "\f0a6";
}

.la.la-hand-o-down {
  font-family: "Line Awesome Free";
  font-weight: 400;
}

.la.la-hand-o-down:before {
  content: "\f0a7";
}

.la.la-arrows-alt:before {
  content: "\f31e";
}

.la.la-group:before {
  content: "\f0c0";
}

.la.la-chain:before {
  content: "\f0c1";
}

.la.la-scissors:before {
  content: "\f0c4";
}

.la.la-files-o {
  font-family: "Line Awesome Free";
  font-weight: 400;
}

.la.la-files-o:before {
  content: "\f0c5";
}

.la.la-floppy-o {
  font-family: "Line Awesome Free";
  font-weight: 400;
}

.la.la-floppy-o:before {
  content: "\f0c7";
}

.la.la-navicon:before {
  content: "\f0c9";
}

.la.la-reorder:before {
  content: "\f0c9";
}

.la.la-pinterest {
  font-family: "Line Awesome Brands";
  font-weight: 400;
}

.la.la-pinterest-square {
  font-family: "Line Awesome Brands";
  font-weight: 400;
}

.la.la-google-plus-square {
  font-family: "Line Awesome Brands";
  font-weight: 400;
}

.la.la-google-plus {
  font-family: "Line Awesome Brands";
  font-weight: 400;
}

.la.la-google-plus:before {
  content: "\f0d5";
}

.la.la-money {
  font-family: "Line Awesome Free";
  font-weight: 400;
}

.la.la-money:before {
  content: "\f3d1";
}

.la.la-unsorted:before {
  content: "\f0dc";
}

.la.la-sort-desc:before {
  content: "\f0dd";
}

.la.la-sort-asc:before {
  content: "\f0de";
}

.la.la-linkedin {
  font-family: "Line Awesome Brands";
  font-weight: 400;
}

.la.la-linkedin:before {
  content: "\f0e1";
}

.la.la-rotate-left:before {
  content: "\f0e2";
}

.la.la-legal:before {
  content: "\f0e3";
}

.la.la-tachometer:before {
  content: "\f3fd";
}

.la.la-dashboard:before {
  content: "\f3fd";
}

.la.la-comment-o {
  font-family: "Line Awesome Free";
  font-weight: 400;
}

.la.la-comment-o:before {
  content: "\f075";
}

.la.la-comments-o {
  font-family: "Line Awesome Free";
  font-weight: 400;
}

.la.la-comments-o:before {
  content: "\f086";
}

.la.la-flash:before {
  content: "\f0e7";
}

.la.la-clipboard {
  font-family: "Line Awesome Free";
  font-weight: 400;
}

.la.la-paste {
  font-family: "Line Awesome Free";
  font-weight: 400;
}

.la.la-paste:before {
  content: "\f328";
}

.la.la-lightbulb-o {
  font-family: "Line Awesome Free";
  font-weight: 400;
}

.la.la-lightbulb-o:before {
  content: "\f0eb";
}

.la.la-exchange:before {
  content: "\f362";
}

.la.la-cloud-download:before {
  content: "\f381";
}

.la.la-cloud-upload:before {
  content: "\f382";
}

.la.la-bell-o {
  font-family: "Line Awesome Free";
  font-weight: 400;
}

.la.la-bell-o:before {
  content: "\f0f3";
}

.la.la-cutlery:before {
  content: "\f2e7";
}

.la.la-file-text-o {
  font-family: "Line Awesome Free";
  font-weight: 400;
}

.la.la-file-text-o:before {
  content: "\f15c";
}

.la.la-building-o {
  font-family: "Line Awesome Free";
  font-weight: 400;
}

.la.la-building-o:before {
  content: "\f1ad";
}

.la.la-hospital-o {
  font-family: "Line Awesome Free";
  font-weight: 400;
}

.la.la-hospital-o:before {
  content: "\f0f8";
}

.la.la-tablet:before {
  content: "\f3fa";
}

.la.la-mobile:before {
  content: "\f3cd";
}

.la.la-mobile-phone:before {
  content: "\f3cd";
}

.la.la-circle-o {
  font-family: "Line Awesome Free";
  font-weight: 400;
}

.la.la-circle-o:before {
  content: "\f111";
}

.la.la-mail-reply:before {
  content: "\f3e5";
}

.la.la-github-alt {
  font-family: "Line Awesome Brands";
  font-weight: 400;
}

.la.la-folder-o {
  font-family: "Line Awesome Free";
  font-weight: 400;
}

.la.la-folder-o:before {
  content: "\f07b";
}

.la.la-folder-open-o {
  font-family: "Line Awesome Free";
  font-weight: 400;
}

.la.la-folder-open-o:before {
  content: "\f07c";
}

.la.la-smile-o {
  font-family: "Line Awesome Free";
  font-weight: 400;
}

.la.la-smile-o:before {
  content: "\f118";
}

.la.la-frown-o {
  font-family: "Line Awesome Free";
  font-weight: 400;
}

.la.la-frown-o:before {
  content: "\f119";
}

.la.la-meh-o {
  font-family: "Line Awesome Free";
  font-weight: 400;
}

.la.la-meh-o:before {
  content: "\f11a";
}

.la.la-keyboard-o {
  font-family: "Line Awesome Free";
  font-weight: 400;
}

.la.la-keyboard-o:before {
  content: "\f11c";
}

.la.la-flag-o {
  font-family: "Line Awesome Free";
  font-weight: 400;
}

.la.la-flag-o:before {
  content: "\f024";
}

.la.la-mail-reply-all:before {
  content: "\f122";
}

.la.la-star-half-o {
  font-family: "Line Awesome Free";
  font-weight: 400;
}

.la.la-star-half-o:before {
  content: "\f089";
}

.la.la-star-half-empty {
  font-family: "Line Awesome Free";
  font-weight: 400;
}

.la.la-star-half-empty:before {
  content: "\f089";
}

.la.la-star-half-full {
  font-family: "Line Awesome Free";
  font-weight: 400;
}

.la.la-star-half-full:before {
  content: "\f089";
}

.la.la-code-fork:before {
  content: "\f126";
}

.la.la-chain-broken:before {
  content: "\f127";
}

.la.la-shield:before {
  content: "\f3ed";
}

.la.la-calendar-o {
  font-family: "Line Awesome Free";
  font-weight: 400;
}

.la.la-calendar-o:before {
  content: "\f133";
}

.la.la-maxcdn {
  font-family: "Line Awesome Brands";
  font-weight: 400;
}

.la.la-html5 {
  font-family: "Line Awesome Brands";
  font-weight: 400;
}

.la.la-css3 {
  font-family: "Line Awesome Brands";
  font-weight: 400;
}

.la.la-ticket:before {
  content: "\f3ff";
}

.la.la-minus-square-o {
  font-family: "Line Awesome Free";
  font-weight: 400;
}

.la.la-minus-square-o:before {
  content: "\f146";
}

.la.la-level-up:before {
  content: "\f3bf";
}

.la.la-level-down:before {
  content: "\f3be";
}

.la.la-pencil-square:before {
  content: "\f14b";
}

.la.la-external-link-square:before {
  content: "\f360";
}

.la.la-compass {
  font-family: "Line Awesome Free";
  font-weight: 400;
}

.la.la-caret-square-o-down {
  font-family: "Line Awesome Free";
  font-weight: 400;
}

.la.la-caret-square-o-down:before {
  content: "\f150";
}

.la.la-toggle-down {
  font-family: "Line Awesome Free";
  font-weight: 400;
}

.la.la-toggle-down:before {
  content: "\f150";
}

.la.la-caret-square-o-up {
  font-family: "Line Awesome Free";
  font-weight: 400;
}

.la.la-caret-square-o-up:before {
  content: "\f151";
}

.la.la-toggle-up {
  font-family: "Line Awesome Free";
  font-weight: 400;
}

.la.la-toggle-up:before {
  content: "\f151";
}

.la.la-caret-square-o-right {
  font-family: "Line Awesome Free";
  font-weight: 400;
}

.la.la-caret-square-o-right:before {
  content: "\f152";
}

.la.la-toggle-right {
  font-family: "Line Awesome Free";
  font-weight: 400;
}

.la.la-toggle-right:before {
  content: "\f152";
}

.la.la-eur:before {
  content: "\f153";
}

.la.la-euro:before {
  content: "\f153";
}

.la.la-gbp:before {
  content: "\f154";
}

.la.la-usd:before {
  content: "\f155";
}

.la.la-dollar:before {
  content: "\f155";
}

.la.la-inr:before {
  content: "\f156";
}

.la.la-rupee:before {
  content: "\f156";
}

.la.la-jpy:before {
  content: "\f157";
}

.la.la-cny:before {
  content: "\f157";
}

.la.la-rmb:before {
  content: "\f157";
}

.la.la-yen:before {
  content: "\f157";
}

.la.la-rub:before {
  content: "\f158";
}

.la.la-ruble:before {
  content: "\f158";
}

.la.la-rouble:before {
  content: "\f158";
}

.la.la-krw:before {
  content: "\f159";
}

.la.la-won:before {
  content: "\f159";
}

.la.la-btc {
  font-family: "Line Awesome Brands";
  font-weight: 400;
}

.la.la-bitcoin {
  font-family: "Line Awesome Brands";
  font-weight: 400;
}

.la.la-bitcoin:before {
  content: "\f15a";
}

.la.la-file-text:before {
  content: "\f15c";
}

.la.la-sort-alpha-asc:before {
  content: "\f15d";
}

.la.la-sort-alpha-desc:before {
  content: "\f881";
}

.la.la-sort-amount-asc:before {
  content: "\f160";
}

.la.la-sort-amount-desc:before {
  content: "\f884";
}

.la.la-sort-numeric-asc:before {
  content: "\f162";
}

.la.la-sort-numeric-desc:before {
  content: "\f886";
}

.la.la-youtube-square {
  font-family: "Line Awesome Brands";
  font-weight: 400;
}

.la.la-youtube {
  font-family: "Line Awesome Brands";
  font-weight: 400;
}

.la.la-xing {
  font-family: "Line Awesome Brands";
  font-weight: 400;
}

.la.la-xing-square {
  font-family: "Line Awesome Brands";
  font-weight: 400;
}

.la.la-youtube-play {
  font-family: "Line Awesome Brands";
  font-weight: 400;
}

.la.la-youtube-play:before {
  content: "\f167";
}

.la.la-dropbox {
  font-family: "Line Awesome Brands";
  font-weight: 400;
}

.la.la-stack-overflow {
  font-family: "Line Awesome Brands";
  font-weight: 400;
}

.la.la-instagram {
  font-family: "Line Awesome Brands";
  font-weight: 400;
}

.la.la-flickr {
  font-family: "Line Awesome Brands";
  font-weight: 400;
}

.la.la-adn {
  font-family: "Line Awesome Brands";
  font-weight: 400;
}

.la.la-bitbucket {
  font-family: "Line Awesome Brands";
  font-weight: 400;
}

.la.la-bitbucket-square {
  font-family: "Line Awesome Brands";
  font-weight: 400;
}

.la.la-bitbucket-square:before {
  content: "\f171";
}

.la.la-tumblr {
  font-family: "Line Awesome Brands";
  font-weight: 400;
}

.la.la-tumblr-square {
  font-family: "Line Awesome Brands";
  font-weight: 400;
}

.la.la-long-arrow-down:before {
  content: "\f309";
}

.la.la-long-arrow-up:before {
  content: "\f30c";
}

.la.la-long-arrow-left:before {
  content: "\f30a";
}

.la.la-long-arrow-right:before {
  content: "\f30b";
}

.la.la-apple {
  font-family: "Line Awesome Brands";
  font-weight: 400;
}

.la.la-windows {
  font-family: "Line Awesome Brands";
  font-weight: 400;
}

.la.la-android {
  font-family: "Line Awesome Brands";
  font-weight: 400;
}

.la.la-linux {
  font-family: "Line Awesome Brands";
  font-weight: 400;
}

.la.la-dribbble {
  font-family: "Line Awesome Brands";
  font-weight: 400;
}

.la.la-skype {
  font-family: "Line Awesome Brands";
  font-weight: 400;
}

.la.la-foursquare {
  font-family: "Line Awesome Brands";
  font-weight: 400;
}

.la.la-trello {
  font-family: "Line Awesome Brands";
  font-weight: 400;
}

.la.la-gratipay {
  font-family: "Line Awesome Brands";
  font-weight: 400;
}

.la.la-gittip {
  font-family: "Line Awesome Brands";
  font-weight: 400;
}

.la.la-gittip:before {
  content: "\f184";
}

.la.la-sun-o {
  font-family: "Line Awesome Free";
  font-weight: 400;
}

.la.la-sun-o:before {
  content: "\f185";
}

.la.la-moon-o {
  font-family: "Line Awesome Free";
  font-weight: 400;
}

.la.la-moon-o:before {
  content: "\f186";
}

.la.la-vk {
  font-family: "Line Awesome Brands";
  font-weight: 400;
}

.la.la-weibo {
  font-family: "Line Awesome Brands";
  font-weight: 400;
}

.la.la-renren {
  font-family: "Line Awesome Brands";
  font-weight: 400;
}

.la.la-pagelines {
  font-family: "Line Awesome Brands";
  font-weight: 400;
}

.la.la-stack-exchange {
  font-family: "Line Awesome Brands";
  font-weight: 400;
}

.la.la-arrow-circle-o-right {
  font-family: "Line Awesome Free";
  font-weight: 400;
}

.la.la-arrow-circle-o-right:before {
  content: "\f35a";
}

.la.la-arrow-circle-o-left {
  font-family: "Line Awesome Free";
  font-weight: 400;
}

.la.la-arrow-circle-o-left:before {
  content: "\f359";
}

.la.la-caret-square-o-left {
  font-family: "Line Awesome Free";
  font-weight: 400;
}

.la.la-caret-square-o-left:before {
  content: "\f191";
}

.la.la-toggle-left {
  font-family: "Line Awesome Free";
  font-weight: 400;
}

.la.la-toggle-left:before {
  content: "\f191";
}

.la.la-dot-circle-o {
  font-family: "Line Awesome Free";
  font-weight: 400;
}

.la.la-dot-circle-o:before {
  content: "\f192";
}

.la.la-vimeo-square {
  font-family: "Line Awesome Brands";
  font-weight: 400;
}

.la.la-try:before {
  content: "\f195";
}

.la.la-turkish-lira:before {
  content: "\f195";
}

.la.la-plus-square-o {
  font-family: "Line Awesome Free";
  font-weight: 400;
}

.la.la-plus-square-o:before {
  content: "\f0fe";
}

.la.la-slack {
  font-family: "Line Awesome Brands";
  font-weight: 400;
}

.la.la-wordpress {
  font-family: "Line Awesome Brands";
  font-weight: 400;
}

.la.la-openid {
  font-family: "Line Awesome Brands";
  font-weight: 400;
}

.la.la-institution:before {
  content: "\f19c";
}

.la.la-bank:before {
  content: "\f19c";
}

.la.la-mortar-board:before {
  content: "\f19d";
}

.la.la-yahoo {
  font-family: "Line Awesome Brands";
  font-weight: 400;
}

.la.la-google {
  font-family: "Line Awesome Brands";
  font-weight: 400;
}

.la.la-reddit {
  font-family: "Line Awesome Brands";
  font-weight: 400;
}

.la.la-reddit-square {
  font-family: "Line Awesome Brands";
  font-weight: 400;
}

.la.la-stumbleupon-circle {
  font-family: "Line Awesome Brands";
  font-weight: 400;
}

.la.la-stumbleupon {
  font-family: "Line Awesome Brands";
  font-weight: 400;
}

.la.la-delicious {
  font-family: "Line Awesome Brands";
  font-weight: 400;
}

.la.la-digg {
  font-family: "Line Awesome Brands";
  font-weight: 400;
}

.la.la-pied-piper-pp {
  font-family: "Line Awesome Brands";
  font-weight: 400;
}

.la.la-pied-piper-alt {
  font-family: "Line Awesome Brands";
  font-weight: 400;
}

.la.la-drupal {
  font-family: "Line Awesome Brands";
  font-weight: 400;
}

.la.la-joomla {
  font-family: "Line Awesome Brands";
  font-weight: 400;
}

.la.la-spoon:before {
  content: "\f2e5";
}

.la.la-behance {
  font-family: "Line Awesome Brands";
  font-weight: 400;
}

.la.la-behance-square {
  font-family: "Line Awesome Brands";
  font-weight: 400;
}

.la.la-steam {
  font-family: "Line Awesome Brands";
  font-weight: 400;
}

.la.la-steam-square {
  font-family: "Line Awesome Brands";
  font-weight: 400;
}

.la.la-automobile:before {
  content: "\f1b9";
}

.la.la-cab:before {
  content: "\f1ba";
}

.la.la-envelope-o {
  font-family: "Line Awesome Free";
  font-weight: 400;
}

.la.la-envelope-o:before {
  content: "\f0e0";
}

.la.la-deviantart {
  font-family: "Line Awesome Brands";
  font-weight: 400;
}

.la.la-soundcloud {
  font-family: "Line Awesome Brands";
  font-weight: 400;
}

.la.la-file-pdf-o {
  font-family: "Line Awesome Free";
  font-weight: 400;
}

.la.la-file-pdf-o:before {
  content: "\f1c1";
}

.la.la-file-word-o {
  font-family: "Line Awesome Free";
  font-weight: 400;
}

.la.la-file-word-o:before {
  content: "\f1c2";
}

.la.la-file-excel-o {
  font-family: "Line Awesome Free";
  font-weight: 400;
}

.la.la-file-excel-o:before {
  content: "\f1c3";
}

.la.la-file-powerpoint-o {
  font-family: "Line Awesome Free";
  font-weight: 400;
}

.la.la-file-powerpoint-o:before {
  content: "\f1c4";
}

.la.la-file-image-o {
  font-family: "Line Awesome Free";
  font-weight: 400;
}

.la.la-file-image-o:before {
  content: "\f1c5";
}

.la.la-file-photo-o {
  font-family: "Line Awesome Free";
  font-weight: 400;
}

.la.la-file-photo-o:before {
  content: "\f1c5";
}

.la.la-file-picture-o {
  font-family: "Line Awesome Free";
  font-weight: 400;
}

.la.la-file-picture-o:before {
  content: "\f1c5";
}

.la.la-file-archive-o {
  font-family: "Line Awesome Free";
  font-weight: 400;
}

.la.la-file-archive-o:before {
  content: "\f1c6";
}

.la.la-file-zip-o {
  font-family: "Line Awesome Free";
  font-weight: 400;
}

.la.la-file-zip-o:before {
  content: "\f1c6";
}

.la.la-file-audio-o {
  font-family: "Line Awesome Free";
  font-weight: 400;
}

.la.la-file-audio-o:before {
  content: "\f1c7";
}

.la.la-file-sound-o {
  font-family: "Line Awesome Free";
  font-weight: 400;
}

.la.la-file-sound-o:before {
  content: "\f1c7";
}

.la.la-file-video-o {
  font-family: "Line Awesome Free";
  font-weight: 400;
}

.la.la-file-video-o:before {
  content: "\f1c8";
}

.la.la-file-movie-o {
  font-family: "Line Awesome Free";
  font-weight: 400;
}

.la.la-file-movie-o:before {
  content: "\f1c8";
}

.la.la-file-code-o {
  font-family: "Line Awesome Free";
  font-weight: 400;
}

.la.la-file-code-o:before {
  content: "\f1c9";
}

.la.la-vine {
  font-family: "Line Awesome Brands";
  font-weight: 400;
}

.la.la-codepen {
  font-family: "Line Awesome Brands";
  font-weight: 400;
}

.la.la-jsfiddle {
  font-family: "Line Awesome Brands";
  font-weight: 400;
}

.la.la-life-ring {
  font-family: "Line Awesome Free";
  font-weight: 400;
}

.la.la-life-bouy {
  font-family: "Line Awesome Free";
  font-weight: 400;
}

.la.la-life-bouy:before {
  content: "\f1cd";
}

.la.la-life-buoy {
  font-family: "Line Awesome Free";
  font-weight: 400;
}

.la.la-life-buoy:before {
  content: "\f1cd";
}

.la.la-life-saver {
  font-family: "Line Awesome Free";
  font-weight: 400;
}

.la.la-life-saver:before {
  content: "\f1cd";
}

.la.la-support {
  font-family: "Line Awesome Free";
  font-weight: 400;
}

.la.la-support:before {
  content: "\f1cd";
}

.la.la-circle-o-notch:before {
  content: "\f1ce";
}

.la.la-rebel {
  font-family: "Line Awesome Brands";
  font-weight: 400;
}

.la.la-ra {
  font-family: "Line Awesome Brands";
  font-weight: 400;
}

.la.la-ra:before {
  content: "\f1d0";
}

.la.la-resistance {
  font-family: "Line Awesome Brands";
  font-weight: 400;
}

.la.la-resistance:before {
  content: "\f1d0";
}

.la.la-empire {
  font-family: "Line Awesome Brands";
  font-weight: 400;
}

.la.la-ge {
  font-family: "Line Awesome Brands";
  font-weight: 400;
}

.la.la-ge:before {
  content: "\f1d1";
}

.la.la-git-square {
  font-family: "Line Awesome Brands";
  font-weight: 400;
}

.la.la-git {
  font-family: "Line Awesome Brands";
  font-weight: 400;
}

.la.la-hacker-news {
  font-family: "Line Awesome Brands";
  font-weight: 400;
}

.la.la-y-combinator-square {
  font-family: "Line Awesome Brands";
  font-weight: 400;
}

.la.la-y-combinator-square:before {
  content: "\f1d4";
}

.la.la-yc-square {
  font-family: "Line Awesome Brands";
  font-weight: 400;
}

.la.la-yc-square:before {
  content: "\f1d4";
}

.la.la-tencent-weibo {
  font-family: "Line Awesome Brands";
  font-weight: 400;
}

.la.la-qq {
  font-family: "Line Awesome Brands";
  font-weight: 400;
}

.la.la-weixin {
  font-family: "Line Awesome Brands";
  font-weight: 400;
}

.la.la-wechat {
  font-family: "Line Awesome Brands";
  font-weight: 400;
}

.la.la-wechat:before {
  content: "\f1d7";
}

.la.la-send:before {
  content: "\f1d8";
}

.la.la-paper-plane-o {
  font-family: "Line Awesome Free";
  font-weight: 400;
}

.la.la-paper-plane-o:before {
  content: "\f1d8";
}

.la.la-send-o {
  font-family: "Line Awesome Free";
  font-weight: 400;
}

.la.la-send-o:before {
  content: "\f1d8";
}

.la.la-circle-thin {
  font-family: "Line Awesome Free";
  font-weight: 400;
}

.la.la-circle-thin:before {
  content: "\f111";
}

.la.la-header:before {
  content: "\f1dc";
}

.la.la-sliders:before {
  content: "\f1de";
}

.la.la-futbol-o {
  font-family: "Line Awesome Free";
  font-weight: 400;
}

.la.la-futbol-o:before {
  content: "\f1e3";
}

.la.la-soccer-ball-o {
  font-family: "Line Awesome Free";
  font-weight: 400;
}

.la.la-soccer-ball-o:before {
  content: "\f1e3";
}

.la.la-slideshare {
  font-family: "Line Awesome Brands";
  font-weight: 400;
}

.la.la-twitch {
  font-family: "Line Awesome Brands";
  font-weight: 400;
}

.la.la-yelp {
  font-family: "Line Awesome Brands";
  font-weight: 400;
}

.la.la-newspaper-o {
  font-family: "Line Awesome Free";
  font-weight: 400;
}

.la.la-newspaper-o:before {
  content: "\f1ea";
}

.la.la-paypal {
  font-family: "Line Awesome Brands";
  font-weight: 400;
}

.la.la-google-wallet {
  font-family: "Line Awesome Brands";
  font-weight: 400;
}

.la.la-cc-visa {
  font-family: "Line Awesome Brands";
  font-weight: 400;
}

.la.la-cc-mastercard {
  font-family: "Line Awesome Brands";
  font-weight: 400;
}

.la.la-cc-discover {
  font-family: "Line Awesome Brands";
  font-weight: 400;
}

.la.la-cc-amex {
  font-family: "Line Awesome Brands";
  font-weight: 400;
}

.la.la-cc-paypal {
  font-family: "Line Awesome Brands";
  font-weight: 400;
}

.la.la-cc-stripe {
  font-family: "Line Awesome Brands";
  font-weight: 400;
}

.la.la-bell-slash-o {
  font-family: "Line Awesome Free";
  font-weight: 400;
}

.la.la-bell-slash-o:before {
  content: "\f1f6";
}

.la.la-trash:before {
  content: "\f2ed";
}

.la.la-copyright {
  font-family: "Line Awesome Free";
  font-weight: 400;
}

.la.la-eyedropper:before {
  content: "\f1fb";
}

.la.la-area-chart:before {
  content: "\f1fe";
}

.la.la-pie-chart:before {
  content: "\f200";
}

.la.la-line-chart:before {
  content: "\f201";
}

.la.la-lastfm {
  font-family: "Line Awesome Brands";
  font-weight: 400;
}

.la.la-lastfm-square {
  font-family: "Line Awesome Brands";
  font-weight: 400;
}

.la.la-ioxhost {
  font-family: "Line Awesome Brands";
  font-weight: 400;
}

.la.la-angellist {
  font-family: "Line Awesome Brands";
  font-weight: 400;
}

.la.la-cc {
  font-family: "Line Awesome Free";
  font-weight: 400;
}

.la.la-cc:before {
  content: "\f20a";
}

.la.la-ils:before {
  content: "\f20b";
}

.la.la-shekel:before {
  content: "\f20b";
}

.la.la-sheqel:before {
  content: "\f20b";
}

.la.la-meanpath {
  font-family: "Line Awesome Brands";
  font-weight: 400;
}

.la.la-meanpath:before {
  content: "\f2b4";
}

.la.la-buysellads {
  font-family: "Line Awesome Brands";
  font-weight: 400;
}

.la.la-connectdevelop {
  font-family: "Line Awesome Brands";
  font-weight: 400;
}

.la.la-dashcube {
  font-family: "Line Awesome Brands";
  font-weight: 400;
}

.la.la-forumbee {
  font-family: "Line Awesome Brands";
  font-weight: 400;
}

.la.la-leanpub {
  font-family: "Line Awesome Brands";
  font-weight: 400;
}

.la.la-sellsy {
  font-family: "Line Awesome Brands";
  font-weight: 400;
}

.la.la-shirtsinbulk {
  font-family: "Line Awesome Brands";
  font-weight: 400;
}

.la.la-simplybuilt {
  font-family: "Line Awesome Brands";
  font-weight: 400;
}

.la.la-skyatlas {
  font-family: "Line Awesome Brands";
  font-weight: 400;
}

.la.la-diamond {
  font-family: "Line Awesome Free";
  font-weight: 400;
}

.la.la-diamond:before {
  content: "\f3a5";
}

.la.la-intersex:before {
  content: "\f224";
}

.la.la-facebook-official {
  font-family: "Line Awesome Brands";
  font-weight: 400;
}

.la.la-facebook-official:before {
  content: "\f09a";
}

.la.la-pinterest-p {
  font-family: "Line Awesome Brands";
  font-weight: 400;
}

.la.la-whatsapp {
  font-family: "Line Awesome Brands";
  font-weight: 400;
}

.la.la-hotel:before {
  content: "\f236";
}

.la.la-viacoin {
  font-family: "Line Awesome Brands";
  font-weight: 400;
}

.la.la-medium {
  font-family: "Line Awesome Brands";
  font-weight: 400;
}

.la.la-y-combinator {
  font-family: "Line Awesome Brands";
  font-weight: 400;
}

.la.la-yc {
  font-family: "Line Awesome Brands";
  font-weight: 400;
}

.la.la-yc:before {
  content: "\f23b";
}

.la.la-optin-monster {
  font-family: "Line Awesome Brands";
  font-weight: 400;
}

.la.la-opencart {
  font-family: "Line Awesome Brands";
  font-weight: 400;
}

.la.la-expeditedssl {
  font-family: "Line Awesome Brands";
  font-weight: 400;
}

.la.la-battery-4:before {
  content: "\f240";
}

.la.la-battery:before {
  content: "\f240";
}

.la.la-battery-3:before {
  content: "\f241";
}

.la.la-battery-2:before {
  content: "\f242";
}

.la.la-battery-1:before {
  content: "\f243";
}

.la.la-battery-0:before {
  content: "\f244";
}

.la.la-object-group {
  font-family: "Line Awesome Free";
  font-weight: 400;
}

.la.la-object-ungroup {
  font-family: "Line Awesome Free";
  font-weight: 400;
}

.la.la-sticky-note-o {
  font-family: "Line Awesome Free";
  font-weight: 400;
}

.la.la-sticky-note-o:before {
  content: "\f249";
}

.la.la-cc-jcb {
  font-family: "Line Awesome Brands";
  font-weight: 400;
}

.la.la-cc-diners-club {
  font-family: "Line Awesome Brands";
  font-weight: 400;
}

.la.la-clone {
  font-family: "Line Awesome Free";
  font-weight: 400;
}

.la.la-hourglass-o {
  font-family: "Line Awesome Free";
  font-weight: 400;
}

.la.la-hourglass-o:before {
  content: "\f254";
}

.la.la-hourglass-1:before {
  content: "\f251";
}

.la.la-hourglass-2:before {
  content: "\f252";
}

.la.la-hourglass-3:before {
  content: "\f253";
}

.la.la-hand-rock-o {
  font-family: "Line Awesome Free";
  font-weight: 400;
}

.la.la-hand-rock-o:before {
  content: "\f255";
}

.la.la-hand-grab-o {
  font-family: "Line Awesome Free";
  font-weight: 400;
}

.la.la-hand-grab-o:before {
  content: "\f255";
}

.la.la-hand-paper-o {
  font-family: "Line Awesome Free";
  font-weight: 400;
}

.la.la-hand-paper-o:before {
  content: "\f256";
}

.la.la-hand-stop-o {
  font-family: "Line Awesome Free";
  font-weight: 400;
}

.la.la-hand-stop-o:before {
  content: "\f256";
}

.la.la-hand-scissors-o {
  font-family: "Line Awesome Free";
  font-weight: 400;
}

.la.la-hand-scissors-o:before {
  content: "\f257";
}

.la.la-hand-lizard-o {
  font-family: "Line Awesome Free";
  font-weight: 400;
}

.la.la-hand-lizard-o:before {
  content: "\f258";
}

.la.la-hand-spock-o {
  font-family: "Line Awesome Free";
  font-weight: 400;
}

.la.la-hand-spock-o:before {
  content: "\f259";
}

.la.la-hand-pointer-o {
  font-family: "Line Awesome Free";
  font-weight: 400;
}

.la.la-hand-pointer-o:before {
  content: "\f25a";
}

.la.la-hand-peace-o {
  font-family: "Line Awesome Free";
  font-weight: 400;
}

.la.la-hand-peace-o:before {
  content: "\f25b";
}

.la.la-registered {
  font-family: "Line Awesome Free";
  font-weight: 400;
}

.la.la-creative-commons {
  font-family: "Line Awesome Brands";
  font-weight: 400;
}

.la.la-gg {
  font-family: "Line Awesome Brands";
  font-weight: 400;
}

.la.la-gg-circle {
  font-family: "Line Awesome Brands";
  font-weight: 400;
}

.la.la-tripadvisor {
  font-family: "Line Awesome Brands";
  font-weight: 400;
}

.la.la-odnoklassniki {
  font-family: "Line Awesome Brands";
  font-weight: 400;
}

.la.la-odnoklassniki-square {
  font-family: "Line Awesome Brands";
  font-weight: 400;
}

.la.la-get-pocket {
  font-family: "Line Awesome Brands";
  font-weight: 400;
}

.la.la-wikipedia-w {
  font-family: "Line Awesome Brands";
  font-weight: 400;
}

.la.la-safari {
  font-family: "Line Awesome Brands";
  font-weight: 400;
}

.la.la-chrome {
  font-family: "Line Awesome Brands";
  font-weight: 400;
}

.la.la-firefox {
  font-family: "Line Awesome Brands";
  font-weight: 400;
}

.la.la-opera {
  font-family: "Line Awesome Brands";
  font-weight: 400;
}

.la.la-internet-explorer {
  font-family: "Line Awesome Brands";
  font-weight: 400;
}

.la.la-television:before {
  content: "\f26c";
}

.la.la-contao {
  font-family: "Line Awesome Brands";
  font-weight: 400;
}

.la.la-500px {
  font-family: "Line Awesome Brands";
  font-weight: 400;
}

.la.la-amazon {
  font-family: "Line Awesome Brands";
  font-weight: 400;
}

.la.la-calendar-plus-o {
  font-family: "Line Awesome Free";
  font-weight: 400;
}

.la.la-calendar-plus-o:before {
  content: "\f271";
}

.la.la-calendar-minus-o {
  font-family: "Line Awesome Free";
  font-weight: 400;
}

.la.la-calendar-minus-o:before {
  content: "\f272";
}

.la.la-calendar-times-o {
  font-family: "Line Awesome Free";
  font-weight: 400;
}

.la.la-calendar-times-o:before {
  content: "\f273";
}

.la.la-calendar-check-o {
  font-family: "Line Awesome Free";
  font-weight: 400;
}

.la.la-calendar-check-o:before {
  content: "\f274";
}

.la.la-map-o {
  font-family: "Line Awesome Free";
  font-weight: 400;
}

.la.la-map-o:before {
  content: "\f279";
}

.la.la-commenting:before {
  content: "\f4ad";
}

.la.la-commenting-o {
  font-family: "Line Awesome Free";
  font-weight: 400;
}

.la.la-commenting-o:before {
  content: "\f4ad";
}

.la.la-houzz {
  font-family: "Line Awesome Brands";
  font-weight: 400;
}

.la.la-vimeo {
  font-family: "Line Awesome Brands";
  font-weight: 400;
}

.la.la-vimeo:before {
  content: "\f27d";
}

.la.la-black-tie {
  font-family: "Line Awesome Brands";
  font-weight: 400;
}

.la.la-fonticons {
  font-family: "Line Awesome Brands";
  font-weight: 400;
}

.la.la-reddit-alien {
  font-family: "Line Awesome Brands";
  font-weight: 400;
}

.la.la-edge {
  font-family: "Line Awesome Brands";
  font-weight: 400;
}

.la.la-credit-card-alt:before {
  content: "\f09d";
}

.la.la-codiepie {
  font-family: "Line Awesome Brands";
  font-weight: 400;
}

.la.la-modx {
  font-family: "Line Awesome Brands";
  font-weight: 400;
}

.la.la-fort-awesome {
  font-family: "Line Awesome Brands";
  font-weight: 400;
}

.la.la-usb {
  font-family: "Line Awesome Brands";
  font-weight: 400;
}

.la.la-product-hunt {
  font-family: "Line Awesome Brands";
  font-weight: 400;
}

.la.la-mixcloud {
  font-family: "Line Awesome Brands";
  font-weight: 400;
}

.la.la-scribd {
  font-family: "Line Awesome Brands";
  font-weight: 400;
}

.la.la-pause-circle-o {
  font-family: "Line Awesome Free";
  font-weight: 400;
}

.la.la-pause-circle-o:before {
  content: "\f28b";
}

.la.la-stop-circle-o {
  font-family: "Line Awesome Free";
  font-weight: 400;
}

.la.la-stop-circle-o:before {
  content: "\f28d";
}

.la.la-bluetooth {
  font-family: "Line Awesome Brands";
  font-weight: 400;
}

.la.la-bluetooth-b {
  font-family: "Line Awesome Brands";
  font-weight: 400;
}

.la.la-gitlab {
  font-family: "Line Awesome Brands";
  font-weight: 400;
}

.la.la-wpbeginner {
  font-family: "Line Awesome Brands";
  font-weight: 400;
}

.la.la-wpforms {
  font-family: "Line Awesome Brands";
  font-weight: 400;
}

.la.la-envira {
  font-family: "Line Awesome Brands";
  font-weight: 400;
}

.la.la-wheelchair-alt {
  font-family: "Line Awesome Brands";
  font-weight: 400;
}

.la.la-wheelchair-alt:before {
  content: "\f368";
}

.la.la-question-circle-o {
  font-family: "Line Awesome Free";
  font-weight: 400;
}

.la.la-question-circle-o:before {
  content: "\f059";
}

.la.la-volume-control-phone:before {
  content: "\f2a0";
}

.la.la-asl-interpreting:before {
  content: "\f2a3";
}

.la.la-deafness:before {
  content: "\f2a4";
}

.la.la-hard-of-hearing:before {
  content: "\f2a4";
}

.la.la-glide {
  font-family: "Line Awesome Brands";
  font-weight: 400;
}

.la.la-glide-g {
  font-family: "Line Awesome Brands";
  font-weight: 400;
}

.la.la-signing:before {
  content: "\f2a7";
}

.la.la-viadeo {
  font-family: "Line Awesome Brands";
  font-weight: 400;
}

.la.la-viadeo-square {
  font-family: "Line Awesome Brands";
  font-weight: 400;
}

.la.la-snapchat {
  font-family: "Line Awesome Brands";
  font-weight: 400;
}

.la.la-snapchat-ghost {
  font-family: "Line Awesome Brands";
  font-weight: 400;
}

.la.la-snapchat-square {
  font-family: "Line Awesome Brands";
  font-weight: 400;
}

.la.la-pied-piper {
  font-family: "Line Awesome Brands";
  font-weight: 400;
}

.la.la-first-order {
  font-family: "Line Awesome Brands";
  font-weight: 400;
}

.la.la-yoast {
  font-family: "Line Awesome Brands";
  font-weight: 400;
}

.la.la-themeisle {
  font-family: "Line Awesome Brands";
  font-weight: 400;
}

.la.la-google-plus-official {
  font-family: "Line Awesome Brands";
  font-weight: 400;
}

.la.la-google-plus-official:before {
  content: "\f2b3";
}

.la.la-google-plus-circle {
  font-family: "Line Awesome Brands";
  font-weight: 400;
}

.la.la-google-plus-circle:before {
  content: "\f2b3";
}

.la.la-font-awesome {
  font-family: "Line Awesome Brands";
  font-weight: 400;
}

.la.la-fa {
  font-family: "Line Awesome Brands";
  font-weight: 400;
}

.la.la-fa:before {
  content: "\f2b4";
}

.la.la-handshake-o {
  font-family: "Line Awesome Free";
  font-weight: 400;
}

.la.la-handshake-o:before {
  content: "\f2b5";
}

.la.la-envelope-open-o {
  font-family: "Line Awesome Free";
  font-weight: 400;
}

.la.la-envelope-open-o:before {
  content: "\f2b6";
}

.la.la-linode {
  font-family: "Line Awesome Brands";
  font-weight: 400;
}

.la.la-address-book-o {
  font-family: "Line Awesome Free";
  font-weight: 400;
}

.la.la-address-book-o:before {
  content: "\f2b9";
}

.la.la-vcard:before {
  content: "\f2bb";
}

.la.la-address-card-o {
  font-family: "Line Awesome Free";
  font-weight: 400;
}

.la.la-address-card-o:before {
  content: "\f2bb";
}

.la.la-vcard-o {
  font-family: "Line Awesome Free";
  font-weight: 400;
}

.la.la-vcard-o:before {
  content: "\f2bb";
}

.la.la-user-circle-o {
  font-family: "Line Awesome Free";
  font-weight: 400;
}

.la.la-user-circle-o:before {
  content: "\f2bd";
}

.la.la-user-o {
  font-family: "Line Awesome Free";
  font-weight: 400;
}

.la.la-user-o:before {
  content: "\f007";
}

.la.la-id-badge {
  font-family: "Line Awesome Free";
  font-weight: 400;
}

.la.la-drivers-license:before {
  content: "\f2c2";
}

.la.la-id-card-o {
  font-family: "Line Awesome Free";
  font-weight: 400;
}

.la.la-id-card-o:before {
  content: "\f2c2";
}

.la.la-drivers-license-o {
  font-family: "Line Awesome Free";
  font-weight: 400;
}

.la.la-drivers-license-o:before {
  content: "\f2c2";
}

.la.la-quora {
  font-family: "Line Awesome Brands";
  font-weight: 400;
}

.la.la-free-code-camp {
  font-family: "Line Awesome Brands";
  font-weight: 400;
}

.la.la-telegram {
  font-family: "Line Awesome Brands";
  font-weight: 400;
}

.la.la-thermometer-4:before {
  content: "\f2c7";
}

.la.la-thermometer:before {
  content: "\f2c7";
}

.la.la-thermometer-3:before {
  content: "\f2c8";
}

.la.la-thermometer-2:before {
  content: "\f2c9";
}

.la.la-thermometer-1:before {
  content: "\f2ca";
}

.la.la-thermometer-0:before {
  content: "\f2cb";
}

.la.la-bathtub:before {
  content: "\f2cd";
}

.la.la-s15:before {
  content: "\f2cd";
}

.la.la-window-maximize {
  font-family: "Line Awesome Free";
  font-weight: 400;
}

.la.la-window-restore {
  font-family: "Line Awesome Free";
  font-weight: 400;
}

.la.la-times-rectangle:before {
  content: "\f410";
}

.la.la-window-close-o {
  font-family: "Line Awesome Free";
  font-weight: 400;
}

.la.la-window-close-o:before {
  content: "\f410";
}

.la.la-times-rectangle-o {
  font-family: "Line Awesome Free";
  font-weight: 400;
}

.la.la-times-rectangle-o:before {
  content: "\f410";
}

.la.la-bandcamp {
  font-family: "Line Awesome Brands";
  font-weight: 400;
}

.la.la-grav {
  font-family: "Line Awesome Brands";
  font-weight: 400;
}

.la.la-etsy {
  font-family: "Line Awesome Brands";
  font-weight: 400;
}

.la.la-imdb {
  font-family: "Line Awesome Brands";
  font-weight: 400;
}

.la.la-ravelry {
  font-family: "Line Awesome Brands";
  font-weight: 400;
}

.la.la-eercast {
  font-family: "Line Awesome Brands";
  font-weight: 400;
}

.la.la-eercast:before {
  content: "\f2da";
}

.la.la-snowflake-o {
  font-family: "Line Awesome Free";
  font-weight: 400;
}

.la.la-snowflake-o:before {
  content: "\f2dc";
}

.la.la-superpowers {
  font-family: "Line Awesome Brands";
  font-weight: 400;
}

.la.la-wpexplorer {
  font-family: "Line Awesome Brands";
  font-weight: 400;
}

.la.la-spotify {
  font-family: "Line Awesome Brands";
  font-weight: 400;
}

.select2-container {
  box-sizing: border-box;
  display: inline-block;
  margin: 0;
  position: relative;
  vertical-align: middle;
}

.select2-container .select2-selection--single {
  box-sizing: border-box;
  cursor: pointer;
  display: block;
  height: 28px;
  -moz-user-select: none;
  -ms-user-select: none;
  user-select: none;
  -webkit-user-select: none;
}

.select2-container .select2-selection--single .select2-selection__rendered {
  display: block;
  padding-left: 8px;
  padding-right: 20px;
  overflow: hidden;
  text-overflow: ellipsis;
  white-space: nowrap;
}

.select2-container .select2-selection--single .select2-selection__clear {
  position: relative;
}

.select2-container[dir="rtl"]
  .select2-selection--single
  .select2-selection__rendered {
  padding-right: 8px;
  padding-left: 20px;
}

.select2-container .select2-selection--multiple {
  box-sizing: border-box;
  cursor: pointer;
  display: block;
  min-height: 32px;
  -moz-user-select: none;
  -ms-user-select: none;
  user-select: none;
  -webkit-user-select: none;
}

.select2-container .select2-selection--multiple .select2-selection__rendered {
  display: inline-block;
  overflow: hidden;
  padding-left: 8px;
  text-overflow: ellipsis;
  white-space: nowrap;
}

.select2-container .select2-search--inline {
  float: left;
}

.select2-container .select2-search--inline .select2-search__field {
  box-sizing: border-box;
  border: none;
  font-size: 100%;
  margin-top: 5px;
  padding: 0;
}

.select2-container
  .select2-search--inline
  .select2-search__field::-webkit-search-cancel-button {
  -webkit-appearance: none;
}

.select2-dropdown {
  background-color: white;
  border: 1px solid #aaa;
  border-radius: 4px;
  box-sizing: border-box;
  display: block;
  position: absolute;
  left: -100000px;
  width: 100%;
  z-index: 1051;
}

.select2-results {
  display: block;
}

.select2-results__options {
  list-style: none;
  margin: 0;
  padding: 0;
}

.select2-results__option {
  padding: 6px;
  -moz-user-select: none;
  -ms-user-select: none;
  user-select: none;
  -webkit-user-select: none;
}

.select2-results__option[aria-selected] {
  cursor: pointer;
}

.select2-container--open .select2-dropdown {
  left: 0;
}

.select2-container--open .select2-dropdown--above {
  border-bottom: none;
  border-bottom-left-radius: 0;
  border-bottom-right-radius: 0;
}

.select2-container--open .select2-dropdown--below {
  border-top: none;
  border-top-left-radius: 0;
  border-top-right-radius: 0;
}

.select2-search--dropdown {
  display: block;
  padding: 4px;
}

.select2-search--dropdown .select2-search__field {
  padding: 4px;
  width: 100%;
  box-sizing: border-box;
}

.select2-search--dropdown .select2-search__field::-webkit-search-cancel-button {
  -webkit-appearance: none;
}

.select2-search--dropdown.select2-search--hide {
  display: none;
}

.select2-close-mask {
  border: 0;
  margin: 0;
  padding: 0;
  display: block;
  position: fixed;
  left: 0;
  top: 0;
  min-height: 100%;
  min-width: 100%;
  height: auto;
  width: auto;
  opacity: 0;
  z-index: 99;
  background-color: #fff;
  filter: alpha(opacity=0);
}

.select2-hidden-accessible {
  border: 0 !important;
  clip: rect(0 0 0 0) !important;
  -webkit-clip-path: inset(50%) !important;
  clip-path: inset(50%) !important;
  height: 1px !important;
  overflow: hidden !important;
  padding: 0 !important;
  position: absolute !important;
  width: 1px !important;
  white-space: nowrap !important;
}

.select2-container--default .select2-selection--single {
  background-color: #fff;
  border: 1px solid #aaa;
  border-radius: 4px;
}

.select2-container--default
  .select2-selection--single
  .select2-selection__rendered {
  color: #444;
  line-height: 28px;
}

.select2-container--default
  .select2-selection--single
  .select2-selection__clear {
  cursor: pointer;
  float: right;
  font-weight: bold;
}

.select2-container--default
  .select2-selection--single
  .select2-selection__placeholder {
  color: #999;
}

.select2-container--default
  .select2-selection--single
  .select2-selection__arrow {
  height: 26px;
  position: absolute;
  top: 1px;
  right: 1px;
  width: 20px;
}

.select2-container--default
  .select2-selection--single
  .select2-selection__arrow
  b {
  border-color: #888 transparent transparent transparent;
  border-style: solid;
  border-width: 5px 4px 0 4px;
  height: 0;
  left: 50%;
  margin-left: -4px;
  margin-top: -2px;
  position: absolute;
  top: 50%;
  width: 0;
}

.select2-container--default[dir="rtl"]
  .select2-selection--single
  .select2-selection__clear {
  float: left;
}

.select2-container--default[dir="rtl"]
  .select2-selection--single
  .select2-selection__arrow {
  left: 1px;
  right: auto;
}

.select2-container--default.select2-container--disabled
  .select2-selection--single {
  background-color: #eee;
  cursor: default;
}

.select2-container--default.select2-container--disabled
  .select2-selection--single
  .select2-selection__clear {
  display: none;
}

.select2-container--default.select2-container--open
  .select2-selection--single
  .select2-selection__arrow
  b {
  border-color: transparent transparent #888 transparent;
  border-width: 0 4px 5px 4px;
}

.select2-container--default .select2-selection--multiple {
  background-color: white;
  border: 1px solid #aaa;
  border-radius: 4px;
  cursor: text;
}

.select2-container--default
  .select2-selection--multiple
  .select2-selection__rendered {
  box-sizing: border-box;
  list-style: none;
  margin: 0;
  padding: 0 5px;
  width: 100%;
}

.select2-container--default
  .select2-selection--multiple
  .select2-selection__rendered
  li {
  list-style: none;
}

.select2-container--default
  .select2-selection--multiple
  .select2-selection__clear {
  cursor: pointer;
  float: right;
  font-weight: bold;
  margin-top: 5px;
  margin-right: 10px;
  padding: 1px;
}

.select2-container--default
  .select2-selection--multiple
  .select2-selection__choice {
  background-color: #e4e4e4;
  border: 1px solid #aaa;
  border-radius: 4px;
  cursor: default;
  float: left;
  margin-right: 5px;
  margin-top: 5px;
  padding: 0 5px;
}

.select2-container--default
  .select2-selection--multiple
  .select2-selection__choice__remove {
  color: #999;
  cursor: pointer;
  display: inline-block;
  font-weight: bold;
  margin-right: 2px;
}

.select2-container--default
  .select2-selection--multiple
  .select2-selection__choice__remove:hover {
  color: #333;
}

.select2-container--default[dir="rtl"]
  .select2-selection--multiple
  .select2-selection__choice,
.select2-container--default[dir="rtl"]
  .select2-selection--multiple
  .select2-search--inline {
  float: right;
}

.select2-container--default[dir="rtl"]
  .select2-selection--multiple
  .select2-selection__choice {
  margin-left: 5px;
  margin-right: auto;
}

.select2-container--default[dir="rtl"]
  .select2-selection--multiple
  .select2-selection__choice__remove {
  margin-left: 2px;
  margin-right: auto;
}

.select2-container--default.select2-container--focus
  .select2-selection--multiple {
  border: solid black 1px;
  outline: 0;
}

.select2-container--default.select2-container--disabled
  .select2-selection--multiple {
  background-color: #eee;
  cursor: default;
}

.select2-container--default.select2-container--disabled
  .select2-selection__choice__remove {
  display: none;
}

.select2-container--default.select2-container--open.select2-container--above
  .select2-selection--single,
.select2-container--default.select2-container--open.select2-container--above
  .select2-selection--multiple {
  border-top-left-radius: 0;
  border-top-right-radius: 0;
}

.select2-container--default.select2-container--open.select2-container--below
  .select2-selection--single,
.select2-container--default.select2-container--open.select2-container--below
  .select2-selection--multiple {
  border-bottom-left-radius: 0;
  border-bottom-right-radius: 0;
}

.select2-container--default .select2-search--dropdown .select2-search__field {
  border: 1px solid #aaa;
}

.select2-container--default .select2-search--inline .select2-search__field {
  background: transparent;
  border: none;
  outline: 0;
  box-shadow: none;
  -webkit-appearance: textfield;
}

.select2-container--default .select2-results > .select2-results__options {
  max-height: 200px;
  overflow-y: auto;
}

.select2-container--default .select2-results__option[role="group"] {
  padding: 0;
}

.select2-container--default .select2-results__option[aria-disabled="true"] {
  color: #999;
}

.select2-container--default .select2-results__option[aria-selected="true"] {
  background-color: #ddd;
}

.select2-container--default .select2-results__option .select2-results__option {
  padding-left: 1em;
}

.select2-container--default
  .select2-results__option
  .select2-results__option
  .select2-results__group {
  padding-left: 0;
}

.select2-container--default
  .select2-results__option
  .select2-results__option
  .select2-results__option {
  margin-left: -1em;
  padding-left: 2em;
}

.select2-container--default
  .select2-results__option
  .select2-results__option
  .select2-results__option
  .select2-results__option {
  margin-left: -2em;
  padding-left: 3em;
}

.select2-container--default
  .select2-results__option
  .select2-results__option
  .select2-results__option
  .select2-results__option
  .select2-results__option {
  margin-left: -3em;
  padding-left: 4em;
}

.select2-container--default
  .select2-results__option
  .select2-results__option
  .select2-results__option
  .select2-results__option
  .select2-results__option
  .select2-results__option {
  margin-left: -4em;
  padding-left: 5em;
}

.select2-container--default
  .select2-results__option
  .select2-results__option
  .select2-results__option
  .select2-results__option
  .select2-results__option
  .select2-results__option
  .select2-results__option {
  margin-left: -5em;
  padding-left: 6em;
}

.select2-container--default
  .select2-results__option--highlighted[aria-selected] {
  background-color: #5897fb;
  color: white;
}

.select2-container--default .select2-results__group {
  cursor: default;
  display: block;
  padding: 6px;
}

.select2-container--classic .select2-selection--single {
  background-color: #f7f7f7;
  border: 1px solid #aaa;
  border-radius: 4px;
  outline: 0;
  background-image: linear-gradient(to bottom, #fff 50%, #eee 100%);
  background-repeat: repeat-x;
  filter: progid:DXImageTransform.Microsoft.gradient(startColorstr='#FFFFFFFF', endColorstr='#FFEEEEEE', GradientType=0);
}

.select2-container--classic .select2-selection--single:focus {
  border: 1px solid #5897fb;
}

.select2-container--classic
  .select2-selection--single
  .select2-selection__rendered {
  color: #444;
  line-height: 28px;
}

.select2-container--classic
  .select2-selection--single
  .select2-selection__clear {
  cursor: pointer;
  float: right;
  font-weight: bold;
  margin-right: 10px;
}

.select2-container--classic
  .select2-selection--single
  .select2-selection__placeholder {
  color: #999;
}

.select2-container--classic
  .select2-selection--single
  .select2-selection__arrow {
  background-color: #ddd;
  border: none;
  border-left: 1px solid #aaa;
  border-top-right-radius: 4px;
  border-bottom-right-radius: 4px;
  height: 26px;
  position: absolute;
  top: 1px;
  right: 1px;
  width: 20px;
  background-image: linear-gradient(to bottom, #eee 50%, #ccc 100%);
  background-repeat: repeat-x;
  filter: progid:DXImageTransform.Microsoft.gradient(startColorstr='#FFEEEEEE', endColorstr='#FFCCCCCC', GradientType=0);
}

.select2-container--classic
  .select2-selection--single
  .select2-selection__arrow
  b {
  border-color: #888 transparent transparent transparent;
  border-style: solid;
  border-width: 5px 4px 0 4px;
  height: 0;
  left: 50%;
  margin-left: -4px;
  margin-top: -2px;
  position: absolute;
  top: 50%;
  width: 0;
}

.select2-container--classic[dir="rtl"]
  .select2-selection--single
  .select2-selection__clear {
  float: left;
}

.select2-container--classic[dir="rtl"]
  .select2-selection--single
  .select2-selection__arrow {
  border: none;
  border-right: 1px solid #aaa;
  border-radius: 0;
  border-top-left-radius: 4px;
  border-bottom-left-radius: 4px;
  left: 1px;
  right: auto;
}

.select2-container--classic.select2-container--open .select2-selection--single {
  border: 1px solid #5897fb;
}

.select2-container--classic.select2-container--open
  .select2-selection--single
  .select2-selection__arrow {
  background: transparent;
  border: none;
}

.select2-container--classic.select2-container--open
  .select2-selection--single
  .select2-selection__arrow
  b {
  border-color: transparent transparent #888 transparent;
  border-width: 0 4px 5px 4px;
}

.select2-container--classic.select2-container--open.select2-container--above
  .select2-selection--single {
  border-top: none;
  border-top-left-radius: 0;
  border-top-right-radius: 0;
  background-image: linear-gradient(to bottom, #fff 0%, #eee 50%);
  background-repeat: repeat-x;
  filter: progid:DXImageTransform.Microsoft.gradient(startColorstr='#FFFFFFFF', endColorstr='#FFEEEEEE', GradientType=0);
}

.select2-container--classic.select2-container--open.select2-container--below
  .select2-selection--single {
  border-bottom: none;
  border-bottom-left-radius: 0;
  border-bottom-right-radius: 0;
  background-image: linear-gradient(to bottom, #eee 50%, #fff 100%);
  background-repeat: repeat-x;
  filter: progid:DXImageTransform.Microsoft.gradient(startColorstr='#FFEEEEEE', endColorstr='#FFFFFFFF', GradientType=0);
}

.select2-container--classic .select2-selection--multiple {
  background-color: white;
  border: 1px solid #aaa;
  border-radius: 4px;
  cursor: text;
  outline: 0;
}

.select2-container--classic .select2-selection--multiple:focus {
  border: 1px solid #5897fb;
}

.select2-container--classic
  .select2-selection--multiple
  .select2-selection__rendered {
  list-style: none;
  margin: 0;
  padding: 0 5px;
}

.select2-container--classic
  .select2-selection--multiple
  .select2-selection__clear {
  display: none;
}

.select2-container--classic
  .select2-selection--multiple
  .select2-selection__choice {
  background-color: #e4e4e4;
  border: 1px solid #aaa;
  border-radius: 4px;
  cursor: default;
  float: left;
  margin-right: 5px;
  margin-top: 5px;
  padding: 0 5px;
}

.select2-container--classic
  .select2-selection--multiple
  .select2-selection__choice__remove {
  color: #888;
  cursor: pointer;
  display: inline-block;
  font-weight: bold;
  margin-right: 2px;
}

.select2-container--classic
  .select2-selection--multiple
  .select2-selection__choice__remove:hover {
  color: #555;
}

.select2-container--classic[dir="rtl"]
  .select2-selection--multiple
  .select2-selection__choice {
  float: right;
  margin-left: 5px;
  margin-right: auto;
}

.select2-container--classic[dir="rtl"]
  .select2-selection--multiple
  .select2-selection__choice__remove {
  margin-left: 2px;
  margin-right: auto;
}

.select2-container--classic.select2-container--open
  .select2-selection--multiple {
  border: 1px solid #5897fb;
}

.select2-container--classic.select2-container--open.select2-container--above
  .select2-selection--multiple {
  border-top: none;
  border-top-left-radius: 0;
  border-top-right-radius: 0;
}

.select2-container--classic.select2-container--open.select2-container--below
  .select2-selection--multiple {
  border-bottom: none;
  border-bottom-left-radius: 0;
  border-bottom-right-radius: 0;
}

.select2-container--classic .select2-search--dropdown .select2-search__field {
  border: 1px solid #aaa;
  outline: 0;
}

.select2-container--classic .select2-search--inline .select2-search__field {
  outline: 0;
  box-shadow: none;
}

.select2-container--classic .select2-dropdown {
  background-color: #fff;
  border: 1px solid transparent;
}

.select2-container--classic .select2-dropdown--above {
  border-bottom: none;
}

.select2-container--classic .select2-dropdown--below {
  border-top: none;
}

.select2-container--classic .select2-results > .select2-results__options {
  max-height: 200px;
  overflow-y: auto;
}

.select2-container--classic .select2-results__option[role="group"] {
  padding: 0;
}

.select2-container--classic .select2-results__option[aria-disabled="true"] {
  color: grey;
}

.select2-container--classic
  .select2-results__option--highlighted[aria-selected] {
  background-color: #3875d7;
  color: #fff;
}

.select2-container--classic .select2-results__group {
  cursor: default;
  display: block;
  padding: 6px;
}

.select2-container--classic.select2-container--open .select2-dropdown {
  border-color: #5897fb;
}

/*! nouislider - 14.5.0 - 5/11/2020 */
.noUi-target,
.noUi-target * {
  -webkit-touch-callout: none;
  -webkit-tap-highlight-color: transparent;
  -webkit-user-select: none;
  touch-action: none;
  -ms-user-select: none;
  -moz-user-select: none;
  user-select: none;
  box-sizing: border-box;
}

.noUi-target {
  position: relative;
}

.noUi-base,
.noUi-connects {
  width: 100%;
  height: 100%;
  position: relative;
  z-index: 1;
}

.noUi-connects {
  overflow: hidden;
  z-index: 0;
}

.noUi-connect,
.noUi-origin {
  will-change: transform;
  position: absolute;
  z-index: 1;
  top: 0;
  right: 0;
  -ms-transform-origin: 0 0;
  -webkit-transform-origin: 0 0;
  -webkit-transform-style: preserve-3d;
  transform-origin: 0 0;
  -webkit-transform-style: flat;
  transform-style: flat;
}

.noUi-connect {
  height: 100%;
  width: 100%;
}

.noUi-origin {
  height: 10%;
  width: 10%;
}

.noUi-txt-dir-rtl.noUi-horizontal .noUi-origin {
  left: 0;
  right: auto;
}

.noUi-vertical .noUi-origin {
  width: 0;
}

.noUi-horizontal .noUi-origin {
  height: 0;
}

.noUi-handle {
  -webkit-backface-visibility: hidden;
  backface-visibility: hidden;
  position: absolute;
}

.noUi-touch-area {
  height: 100%;
  width: 100%;
}

.noUi-state-tap .noUi-connect,
.noUi-state-tap .noUi-origin {
  transition: -webkit-transform 0.3s;
  transition: transform 0.3s;
  transition: transform 0.3s, -webkit-transform 0.3s;
}

.noUi-state-drag * {
  cursor: inherit !important;
}

.noUi-horizontal {
  height: 18px;
}

.noUi-horizontal .noUi-handle {
  width: 34px;
  height: 28px;
  right: -17px;
  top: -6px;
}

.noUi-vertical {
  width: 18px;
}

.noUi-vertical .noUi-handle {
  width: 28px;
  height: 34px;
  right: -6px;
  top: -17px;
}

.noUi-txt-dir-rtl.noUi-horizontal .noUi-handle {
  left: -17px;
  right: auto;
}

.noUi-target {
  background: #fafafa;
  border-radius: 4px;
  border: 1px solid #d3d3d3;
  box-shadow: inset 0 1px 1px #f0f0f0, 0 3px 6px -5px #bbb;
}

.noUi-connects {
  border-radius: 3px;
}

.noUi-connect {
  background: #3fb8af;
}

.noUi-draggable {
  cursor: ew-resize;
}

.noUi-vertical .noUi-draggable {
  cursor: ns-resize;
}

.noUi-handle {
  border: 1px solid #d9d9d9;
  border-radius: 3px;
  background: #fff;
  cursor: default;
  box-shadow: inset 0 0 1px #fff, inset 0 1px 7px #ebebeb, 0 3px 6px -3px #bbb;
}

.noUi-active {
  box-shadow: inset 0 0 1px #fff, inset 0 1px 7px #ddd, 0 3px 6px -3px #bbb;
}

.noUi-handle:after,
.noUi-handle:before {
  content: "";
  display: block;
  position: absolute;
  height: 14px;
  width: 1px;
  background: #e8e7e6;
  left: 14px;
  top: 6px;
}

.noUi-handle:after {
  left: 17px;
}

.noUi-vertical .noUi-handle:after,
.noUi-vertical .noUi-handle:before {
  width: 14px;
  height: 1px;
  left: 6px;
  top: 14px;
}

.noUi-vertical .noUi-handle:after {
  top: 17px;
}

[disabled] .noUi-connect {
  background: #b8b8b8;
}

[disabled] .noUi-handle,
[disabled].noUi-handle,
[disabled].noUi-target {
  cursor: not-allowed;
}

.noUi-pips,
.noUi-pips * {
  box-sizing: border-box;
}

.noUi-pips {
  position: absolute;
  color: #999;
}

.noUi-value {
  position: absolute;
  white-space: nowrap;
  text-align: center;
}

.noUi-value-sub {
  color: #ccc;
  font-size: 10px;
}

.noUi-marker {
  position: absolute;
  background: #ccc;
}

.noUi-marker-sub {
  background: #aaa;
}

.noUi-marker-large {
  background: #aaa;
}

.noUi-pips-horizontal {
  padding: 10px 0;
  height: 80px;
  top: 100%;
  left: 0;
  width: 100%;
}

.noUi-value-horizontal {
  -webkit-transform: translate(-50%, 50%);
  transform: translate(-50%, 50%);
}

.noUi-rtl .noUi-value-horizontal {
  -webkit-transform: translate(50%, 50%);
  transform: translate(50%, 50%);
}

.noUi-marker-horizontal.noUi-marker {
  margin-left: -1px;
  width: 2px;
  height: 5px;
}

.noUi-marker-horizontal.noUi-marker-sub {
  height: 10px;
}

.noUi-marker-horizontal.noUi-marker-large {
  height: 15px;
}

.noUi-pips-vertical {
  padding: 0 10px;
  height: 100%;
  top: 0;
  left: 100%;
}

.noUi-value-vertical {
  -webkit-transform: translate(0, -50%);
  transform: translate(0, -50%);
  padding-left: 25px;
}

.noUi-rtl .noUi-value-vertical {
  -webkit-transform: translate(0, 50%);
  transform: translate(0, 50%);
}

.noUi-marker-vertical.noUi-marker {
  width: 5px;
  height: 2px;
  margin-top: -1px;
}

.noUi-marker-vertical.noUi-marker-sub {
  width: 10px;
}

.noUi-marker-vertical.noUi-marker-large {
  width: 15px;
}

.noUi-tooltip {
  display: block;
  position: absolute;
  border: 1px solid #d9d9d9;
  border-radius: 3px;
  background: #fff;
  color: #000;
  padding: 5px;
  text-align: center;
  white-space: nowrap;
}

.noUi-horizontal .noUi-tooltip {
  -webkit-transform: translate(-50%, 0);
  transform: translate(-50%, 0);
  left: 50%;
  bottom: 120%;
}

.noUi-vertical .noUi-tooltip {
  -webkit-transform: translate(0, -50%);
  transform: translate(0, -50%);
  top: 50%;
  right: 120%;
}

.noUi-horizontal .noUi-origin > .noUi-tooltip {
  -webkit-transform: translate(50%, 0);
  transform: translate(50%, 0);
  left: auto;
  bottom: 10px;
}

.noUi-vertical .noUi-origin > .noUi-tooltip {
  -webkit-transform: translate(0, -18px);
  transform: translate(0, -18px);
  top: auto;
  right: 28px;
}

.datepicker--cell-day.-other-month-,
.datepicker--cell-year.-other-decade- {
  color: #dedede;
}

.datepicker--cell-day.-other-month-:hover,
.datepicker--cell-year.-other-decade-:hover {
  color: #c5c5c5;
}

.-disabled-.-focus-.datepicker--cell-day.-other-month-,
.-disabled-.-focus-.datepicker--cell-year.-other-decade- {
  color: #dedede;
}

.-selected-.datepicker--cell-day.-other-month-,
.-selected-.datepicker--cell-year.-other-decade- {
  color: #fff;
  background: #a6b9f9;
}

.-selected-.-focus-.datepicker--cell-day.-other-month-,
.-selected-.-focus-.datepicker--cell-year.-other-decade- {
  background: #8ea6f7;
}

.-in-range-.datepicker--cell-day.-other-month-,
.-in-range-.datepicker--cell-year.-other-decade- {
  background-color: rgba(94, 129, 244, 0.1);
  color: #cccccc;
}

.-in-range-.-focus-.datepicker--cell-day.-other-month-,
.-in-range-.-focus-.datepicker--cell-year.-other-decade- {
  background-color: rgba(94, 129, 244, 0.2);
}

.datepicker--cell-day.-other-month-:empty,
.datepicker--cell-year.-other-decade-:empty {
  background: none;
  border: none;
}

/* -------------------------------------------------
    Datepicker
   ------------------------------------------------- */
.datepickers-container {
  position: absolute;
  left: 0;
  top: 0;
}

.datepicker {
  background: #fff;
  border: 1px solid #dbdbdb;
  box-shadow: 0 4px 12px rgba(0, 0, 0, 0.15);
  border-radius: 4px;
  box-sizing: content-box;
  font-family: Tahoma, sans-serif;
  font-size: 14px;
  color: #4a4a4a;
  width: 250px;
  position: absolute;
  left: -100000px;
  opacity: 0;
  transition: opacity 0.3s ease, left 0s 0.3s, -webkit-transform 0.3s ease;
  transition: opacity 0.3s ease, transform 0.3s ease, left 0s 0.3s;
  transition: opacity 0.3s ease, transform 0.3s ease, left 0s 0.3s,
    -webkit-transform 0.3s ease;
  z-index: 100;
}

.datepicker.-from-top- {
  -webkit-transform: translateY(-8px);
  transform: translateY(-8px);
}

.datepicker.-from-right- {
  -webkit-transform: translateX(8px);
  transform: translateX(8px);
}

.datepicker.-from-bottom- {
  -webkit-transform: translateY(8px);
  transform: translateY(8px);
}

.datepicker.-from-left- {
  -webkit-transform: translateX(-8px);
  transform: translateX(-8px);
}

.datepicker.active {
  opacity: 1;
  -webkit-transform: translate(0);
  transform: translate(0);
  transition: opacity 0.3s ease, left 0s 0s, -webkit-transform 0.3s ease;
  transition: opacity 0.3s ease, transform 0.3s ease, left 0s 0s;
  transition: opacity 0.3s ease, transform 0.3s ease, left 0s 0s,
    -webkit-transform 0.3s ease;
}

.datepicker-inline .datepicker {
  border-color: #d7d7d7;
  box-shadow: none;
  position: static;
  left: auto;
  right: auto;
  opacity: 1;
  -webkit-transform: none;
  transform: none;
}

.datepicker-inline .datepicker--pointer {
  display: none;
}

.datepicker--content {
  box-sizing: content-box;
  padding: 4px;
}

.-only-timepicker- .datepicker--content {
  display: none;
}

.datepicker--pointer {
  position: absolute;
  background: #fff;
  border-top: 1px solid #dbdbdb;
  border-right: 1px solid #dbdbdb;
  width: 10px;
  height: 10px;
  z-index: -1;
}

.-top-left- .datepicker--pointer,
.-top-center- .datepicker--pointer,
.-top-right- .datepicker--pointer {
  top: calc(100% - 4px);
  -webkit-transform: rotate(135deg);
  transform: rotate(135deg);
}

.-right-top- .datepicker--pointer,
.-right-center- .datepicker--pointer,
.-right-bottom- .datepicker--pointer {
  right: calc(100% - 4px);
  -webkit-transform: rotate(225deg);
  transform: rotate(225deg);
}

.-bottom-left- .datepicker--pointer,
.-bottom-center- .datepicker--pointer,
.-bottom-right- .datepicker--pointer {
  bottom: calc(100% - 4px);
  -webkit-transform: rotate(315deg);
  transform: rotate(315deg);
}

.-left-top- .datepicker--pointer,
.-left-center- .datepicker--pointer,
.-left-bottom- .datepicker--pointer {
  left: calc(100% - 4px);
  -webkit-transform: rotate(45deg);
  transform: rotate(45deg);
}

.-top-left- .datepicker--pointer,
.-bottom-left- .datepicker--pointer {
  left: 10px;
}

.-top-right- .datepicker--pointer,
.-bottom-right- .datepicker--pointer {
  right: 10px;
}

.-top-center- .datepicker--pointer,
.-bottom-center- .datepicker--pointer {
  left: calc(50% - 10px / 2);
}

.-left-top- .datepicker--pointer,
.-right-top- .datepicker--pointer {
  top: 10px;
}

.-left-bottom- .datepicker--pointer,
.-right-bottom- .datepicker--pointer {
  bottom: 10px;
}

.-left-center- .datepicker--pointer,
.-right-center- .datepicker--pointer {
  top: calc(50% - 10px / 2);
}

.datepicker--body {
  display: none;
}

.datepicker--body.active {
  display: block;
}

.datepicker--cell-day.-other-month-,
.datepicker--cell-year.-other-decade- {
  color: #dedede;
}

.datepicker--cell-day.-other-month-:hover,
.datepicker--cell-year.-other-decade-:hover {
  color: #c5c5c5;
}

.-disabled-.-focus-.datepicker--cell-day.-other-month-,
.-disabled-.-focus-.datepicker--cell-year.-other-decade- {
  color: #dedede;
}

.-selected-.datepicker--cell-day.-other-month-,
.-selected-.datepicker--cell-year.-other-decade- {
  color: #fff;
  background: #a6b9f9;
}

.-selected-.-focus-.datepicker--cell-day.-other-month-,
.-selected-.-focus-.datepicker--cell-year.-other-decade- {
  background: #8ea6f7;
}

.-in-range-.datepicker--cell-day.-other-month-,
.-in-range-.datepicker--cell-year.-other-decade- {
  background-color: rgba(94, 129, 244, 0.1);
  color: #cccccc;
}

.-in-range-.-focus-.datepicker--cell-day.-other-month-,
.-in-range-.-focus-.datepicker--cell-year.-other-decade- {
  background-color: rgba(94, 129, 244, 0.2);
}

.datepicker--cell-day.-other-month-:empty,
.datepicker--cell-year.-other-decade-:empty {
  background: none;
  border: none;
}

/* -------------------------------------------------
    Datepicker cells
   ------------------------------------------------- */
.datepicker--cells {
  display: flex;
  flex-wrap: wrap;
}

.datepicker--cell {
  border-radius: 4px;
  box-sizing: border-box;
  cursor: pointer;
  display: flex;
  position: relative;
  align-items: center;
  justify-content: center;
  height: 32px;
  z-index: 1;
}

.datepicker--cell.-focus- {
  background: #f0f0f0;
}

.datepicker--cell.-current- {
  color: #5e81f4;
}

.datepicker--cell.-current-.-focus- {
  color: #4a4a4a;
}

.datepicker--cell.-current-.-in-range- {
  color: #5e81f4;
}

.datepicker--cell.-in-range- {
  background: rgba(94, 129, 244, 0.1);
  color: #4a4a4a;
  border-radius: 0;
}

.datepicker--cell.-in-range-.-focus- {
  background-color: rgba(94, 129, 244, 0.2);
}

.datepicker--cell.-disabled- {
  cursor: default;
  color: #aeaeae;
}

.datepicker--cell.-disabled-.-focus- {
  color: #aeaeae;
}

.datepicker--cell.-disabled-.-in-range- {
  color: #a1a1a1;
}

.datepicker--cell.-disabled-.-current-.-focus- {
  color: #aeaeae;
}

.datepicker--cell.-range-from- {
  border: 1px solid rgba(94, 129, 244, 0.5);
  background-color: rgba(94, 129, 244, 0.1);
  border-radius: 4px 0 0 4px;
}

.datepicker--cell.-range-to- {
  border: 1px solid rgba(94, 129, 244, 0.5);
  background-color: rgba(94, 129, 244, 0.1);
  border-radius: 0 4px 4px 0;
}

.datepicker--cell.-range-from-.-range-to- {
  border-radius: 4px;
}

.datepicker--cell.-selected- {
  color: #fff;
  border: none;
  background: #5e81f4;
}

.datepicker--cell.-selected-.-current- {
  color: #fff;
  background: #5e81f4;
}

.datepicker--cell.-selected-.-focus- {
  background: #466ef2;
}

.datepicker--cell:empty {
  cursor: default;
}

.datepicker--days-names {
  display: flex;
  flex-wrap: wrap;
  margin: 8px 0 3px;
}

.datepicker--day-name {
  color: #ff9a19;
  display: flex;
  align-items: center;
  justify-content: center;
  flex: 1;
  text-align: center;
  text-transform: uppercase;
  font-size: 0.8em;
}

.datepicker--cell-day {
  width: 14.28571%;
}

.datepicker--cells-months {
  height: 170px;
}

.datepicker--cell-month {
  width: 33.33%;
  height: 25%;
}

.datepicker--years {
  height: 170px;
}

.datepicker--cells-years {
  height: 170px;
}

.datepicker--cell-year {
  width: 25%;
  height: 33.33%;
}

.datepicker--cell-day.-other-month-,
.datepicker--cell-year.-other-decade- {
  color: #dedede;
}

.datepicker--cell-day.-other-month-:hover,
.datepicker--cell-year.-other-decade-:hover {
  color: #c5c5c5;
}

.-disabled-.-focus-.datepicker--cell-day.-other-month-,
.-disabled-.-focus-.datepicker--cell-year.-other-decade- {
  color: #dedede;
}

.-selected-.datepicker--cell-day.-other-month-,
.-selected-.datepicker--cell-year.-other-decade- {
  color: #fff;
  background: #a6b9f9;
}

.-selected-.-focus-.datepicker--cell-day.-other-month-,
.-selected-.-focus-.datepicker--cell-year.-other-decade- {
  background: #8ea6f7;
}

.-in-range-.datepicker--cell-day.-other-month-,
.-in-range-.datepicker--cell-year.-other-decade- {
  background-color: rgba(94, 129, 244, 0.1);
  color: #cccccc;
}

.-in-range-.-focus-.datepicker--cell-day.-other-month-,
.-in-range-.-focus-.datepicker--cell-year.-other-decade- {
  background-color: rgba(94, 129, 244, 0.2);
}

.datepicker--cell-day.-other-month-:empty,
.datepicker--cell-year.-other-decade-:empty {
  background: none;
  border: none;
}

/* -------------------------------------------------
    Navigation
   ------------------------------------------------- */
.datepicker--nav {
  display: flex;
  justify-content: space-between;
  border-bottom: 1px solid #efefef;
  min-height: 32px;
  padding: 4px;
}

.-only-timepicker- .datepicker--nav {
  display: none;
}

.datepicker--nav-title,
.datepicker--nav-action {
  display: flex;
  cursor: pointer;
  align-items: center;
  justify-content: center;
}

.datepicker--nav-action {
  width: 32px;
  border-radius: 4px;
  -webkit-user-select: none;
  -moz-user-select: none;
  -ms-user-select: none;
  user-select: none;
}

.datepicker--nav-action:hover {
  background: #f0f0f0;
}

.datepicker--nav-action.-disabled- {
  visibility: hidden;
}

.datepicker--nav-action svg {
  width: 32px;
  height: 32px;
}

.datepicker--nav-action path {
  fill: none;
  stroke: #9c9c9c;
  stroke-width: 2px;
}

.datepicker--nav-title {
  border-radius: 4px;
  padding: 0 8px;
}

.datepicker--nav-title i {
  font-style: normal;
  color: #9c9c9c;
  margin-left: 5px;
}

.datepicker--nav-title:hover {
  background: #f0f0f0;
}

.datepicker--nav-title.-disabled- {
  cursor: default;
  background: none;
}

.datepicker--buttons {
  display: flex;
  padding: 4px;
  border-top: 1px solid #efefef;
}

.datepicker--button {
  color: #5e81f4;
  cursor: pointer;
  border-radius: 4px;
  flex: 1;
  display: inline-flex;
  justify-content: center;
  align-items: center;
  height: 32px;
}

.datepicker--button:hover {
  color: #4a4a4a;
  background: #f0f0f0;
}

.datepicker--cell-day.-other-month-,
.datepicker--cell-year.-other-decade- {
  color: #dedede;
}

.datepicker--cell-day.-other-month-:hover,
.datepicker--cell-year.-other-decade-:hover {
  color: #c5c5c5;
}

.-disabled-.-focus-.datepicker--cell-day.-other-month-,
.-disabled-.-focus-.datepicker--cell-year.-other-decade- {
  color: #dedede;
}

.-selected-.datepicker--cell-day.-other-month-,
.-selected-.datepicker--cell-year.-other-decade- {
  color: #fff;
  background: #a6b9f9;
}

.-selected-.-focus-.datepicker--cell-day.-other-month-,
.-selected-.-focus-.datepicker--cell-year.-other-decade- {
  background: #8ea6f7;
}

.-in-range-.datepicker--cell-day.-other-month-,
.-in-range-.datepicker--cell-year.-other-decade- {
  background-color: rgba(94, 129, 244, 0.1);
  color: #cccccc;
}

.-in-range-.-focus-.datepicker--cell-day.-other-month-,
.-in-range-.-focus-.datepicker--cell-year.-other-decade- {
  background-color: rgba(94, 129, 244, 0.2);
}

.datepicker--cell-day.-other-month-:empty,
.datepicker--cell-year.-other-decade-:empty {
  background: none;
  border: none;
}

/* -------------------------------------------------
    Timepicker
   ------------------------------------------------- */
.datepicker--time {
  border-top: 1px solid #efefef;
  display: flex;
  align-items: center;
  padding: 4px;
  position: relative;
}

.datepicker--time.-am-pm- .datepicker--time-sliders {
  flex: 0 1 138px;
  max-width: 138px;
}

.-only-timepicker- .datepicker--time {
  border-top: none;
}

.datepicker--time-sliders {
  flex: 0 1 153px;
  margin-right: 10px;
  max-width: 153px;
}

.datepicker--time-label {
  display: none;
  font-size: 12px;
}

.datepicker--time-current {
  display: flex;
  align-items: center;
  flex: 1;
  font-size: 14px;
  text-align: center;
  margin: 0 0 0 10px;
}

.datepicker--time-current-colon {
  margin: 0 2px 3px;
  line-height: 1;
}

.datepicker--time-current-hours,
.datepicker--time-current-minutes {
  line-height: 1;
  font-size: 19px;
  font-family: "Century Gothic", CenturyGothic, AppleGothic, sans-serif;
  position: relative;
  z-index: 1;
}

.datepicker--time-current-hours:after,
.datepicker--time-current-minutes:after {
  content: "";
  background: #f0f0f0;
  border-radius: 4px;
  position: absolute;
  left: -2px;
  top: -3px;
  right: -2px;
  bottom: -2px;
  z-index: -1;
  opacity: 0;
}

.datepicker--time-current-hours.-focus-:after,
.datepicker--time-current-minutes.-focus-:after {
  opacity: 1;
}

.datepicker--time-current-ampm {
  text-transform: uppercase;
  align-self: flex-end;
  color: #9c9c9c;
  margin-left: 6px;
  font-size: 11px;
  margin-bottom: 1px;
}

.datepicker--time-row {
  display: flex;
  align-items: center;
  font-size: 11px;
  height: 17px;
  background: linear-gradient(to right, #dedede, #dedede) left 50%/100% 1px
    no-repeat;
}

.datepicker--time-row:first-child {
  margin-bottom: 4px;
}

.datepicker--time-row input[type="range"] {
  background: none;
  cursor: pointer;
  flex: 1;
  height: 100%;
  padding: 0;
  margin: 0;
  -webkit-appearance: none;
}

.datepicker--time-row input[type="range"]::-webkit-slider-thumb {
  -webkit-appearance: none;
}

.datepicker--time-row input[type="range"]::-ms-tooltip {
  display: none;
}

.datepicker--time-row input[type="range"]:hover::-webkit-slider-thumb {
  border-color: #b8b8b8;
}

.datepicker--time-row input[type="range"]:hover::-moz-range-thumb {
  border-color: #b8b8b8;
}

.datepicker--time-row input[type="range"]:hover::-ms-thumb {
  border-color: #b8b8b8;
}

.datepicker--time-row input[type="range"]:focus {
  outline: none;
}

.datepicker--time-row input[type="range"]:focus::-webkit-slider-thumb {
  background: #5e81f4;
  border-color: #5e81f4;
}

.datepicker--time-row input[type="range"]:focus::-moz-range-thumb {
  background: #5e81f4;
  border-color: #5e81f4;
}

.datepicker--time-row input[type="range"]:focus::-ms-thumb {
  background: #5e81f4;
  border-color: #5e81f4;
}

.datepicker--time-row input[type="range"]::-webkit-slider-thumb {
  box-sizing: border-box;
  height: 12px;
  width: 12px;
  border-radius: 3px;
  border: 1px solid #dedede;
  background: #fff;
  cursor: pointer;
  transition: background 0.2s;
}

.datepicker--time-row input[type="range"]::-moz-range-thumb {
  box-sizing: border-box;
  height: 12px;
  width: 12px;
  border-radius: 3px;
  border: 1px solid #dedede;
  background: #fff;
  cursor: pointer;
  transition: background 0.2s;
}

.datepicker--time-row input[type="range"]::-ms-thumb {
  box-sizing: border-box;
  height: 12px;
  width: 12px;
  border-radius: 3px;
  border: 1px solid #dedede;
  background: #fff;
  cursor: pointer;
  transition: background 0.2s;
}

.datepicker--time-row input[type="range"]::-webkit-slider-thumb {
  margin-top: -6px;
}

.datepicker--time-row input[type="range"]::-webkit-slider-runnable-track {
  border: none;
  height: 1px;
  cursor: pointer;
  color: transparent;
  background: transparent;
}

.datepicker--time-row input[type="range"]::-moz-range-track {
  border: none;
  height: 1px;
  cursor: pointer;
  color: transparent;
  background: transparent;
}

.datepicker--time-row input[type="range"]::-ms-track {
  border: none;
  height: 1px;
  cursor: pointer;
  color: transparent;
  background: transparent;
}

.datepicker--time-row input[type="range"]::-ms-fill-lower {
  background: transparent;
}

.datepicker--time-row input[type="range"]::-ms-fill-upper {
  background: transparent;
}

.datepicker--time-row span {
  padding: 0 12px;
}

.datepicker--time-icon {
  color: #9c9c9c;
  border: 1px solid;
  border-radius: 50%;
  font-size: 16px;
  position: relative;
  margin: 0 5px -1px 0;
  width: 1em;
  height: 1em;
}

.datepicker--time-icon:after,
.datepicker--time-icon:before {
  content: "";
  background: currentColor;
  position: absolute;
}

.datepicker--time-icon:after {
  height: 0.4em;
  width: 1px;
  left: calc(50% - 1px);
  top: calc(50% + 1px);
  -webkit-transform: translateY(-100%);
  transform: translateY(-100%);
}

.datepicker--time-icon:before {
  width: 0.4em;
  height: 1px;
  top: calc(50% + 1px);
  left: calc(50% - 1px);
}

body {
  /* font-family: "Lato", sans-serif; */
  /* font-family: "Poppins", sans-serif; */
…
    /* padding: 24px 0px !important; */
  }
  .profile_sidebar_container {
    display: block;
    margin-bottom: 15px;
  }
  .addFundsTableHeader {
    display: block;
  }
  .addFundsTableHeaderAction {
    margin-top: 15px;
  }
  .dashboard_orders_table_title {
    padding-bottom: 10px;
  }
  .dashboard_panel {
    background: #fff !important;
    padding: 24px !important;
  }
  .dashboard_panel_body {
    padding: 0px !important;
  }
  .conversation_container .sidebar__inner {
    display: flex !important;
  }

  .waiting_period {
    margin-right: 10px;
    margin-top: 15px;
  }
  .select_payment_title {
    margin-top: 20px;
  }

  .payment_options_panel {
    background: white !important;
    padding: 24px !important;
  }
  /* .data__item {
    border: 1px solid #f0f0f3 !important;
  } */
  .nav__title {
    display: none;
  }
  .custom_action_search {
    display: flex;
  }
  .addFundsData {
    margin-top: 29px !important;
  }
  .addFundsPanel {
    background: #fff !important;
    padding: 24px !important;
  }
  .banner_wallet_block {
    margin-top: -48px;
    margin-bottom: -10px;
  }
  .banner_main_panel {
    padding: 12px 24px 0px 24px;
  }
  .banner_sub_panel {
    padding: 29px 0px 0px 0px;
  }
  .btn-group_tabs {
    margin: 0 -3px;
    flex: 1 1 auto;
  }

  .btn-group_tabs .btn {
    min-width: calc(33.33% - 6px);
    height: 36px;
    margin: 0 3px;
    padding: 0 9px;
    background: #eff2fe;
    border-color: transparent;
    border-radius: 6px;
    color: #5e81f4;
    flex: 1;
  }

  .btn-group_tabs .la {
    display: none;
  }
  .action-group_grow {
    margin: 0 -3px;
  }
  .datepicker {
    width: 280px;
  }
  .datepicker--nav {
    min-height: 38px;
  }
  .datepicker--nav-action {
    width: 38px;
  }
  .datepicker--cell-day {
    min-height: 38px;
  }
  .datepicker--day-name {
    min-height: 38px;
  }
  .upload {
    height: 100px;
  }
  .upload_lg {
    height: 340px;
  }
  .table th,
  .table td {
    padding: 10px;
  }
  .table th:first-child,
  .table td:first-child {
    padding-left: 16px;
  }
  .table th:last-child,
  .table td:last-child {
    padding-right: 16px;
  }
  .table__total {
    font-size: 14px;
  }
  /* .auth__main {
    padding: 116px 32px;
  } */
  .auth__subtitle {
    display: block;
  }
  .auth__inner {
    padding: 32px;
  }
  .auth__head {
    display: none;
  }
  .auth__field {
    margin-bottom: 16px;
  }
  .auth__flex {
    margin-bottom: 24px;
  }
  .auth__btns {
    margin-top: 24px;
  }
  .auth__enter {
    margin-top: 24px;
  }
  .nav {
    position: fixed;
    left: 0;
    bottom: 0;
    width: 100%;
    height: auto;
  }
  .nav__list {
    padding: 0;
  }
  .nav__link_head {
    display: none;
  }
  .nav__link_menu {
    display: flex;
  }
  .nav__primary {
    position: absolute;
    left: 0;
    bottom: 0;
    width: 100%;
    padding: 0 10px;
    background: white;
    box-shadow: 0 0 16px rgba(0, 0, 0, 0.1);
    transition: -webkit-transform 0.4s;
    transition: transform 0.4s;
    transition: transform 0.4s, -webkit-transform 0.4s;
    z-index: 4;
  }
  .nav__primary.hidden {
    -webkit-transform: translateY(calc(100% + 16px));
    transform: translateY(calc(100% + 16px));
  }
  .nav__primary .nav__group {
    display: none !important;
    justify-content: space-between;
  }
  .nav__primary .nav__link {
    max-width: 56px;
    padding: 14px 4px;
    flex: 1;
  }
  .nav__primary .nav__link.active:after {
    top: 0;
    bottom: auto;
    right: calc(50% - 24px);
    width: 48px;
    height: 2px;
  }
  .nav__secondary {
    display: none;
    position: fixed;
    top: 0;
    left: 0;
    width: 100%;
    height: 100%;
    padding: 48px 16px 92px;
    background: #f5f5fa;
    overflow: auto;
    z-index: 2;
  }
  .nav__secondary.visible {
    display: block;
  }
  .nav__secondary .nav__group {
    display: flex;
    flex-direction: column;
  }
  .nav__secondary .nav__link {
    min-height: 64px;
    margin-bottom: 4px;
    background: white;
    border-radius: 10px;
    order: 2;
  }
  .nav__secondary .nav__link.active:after {
    left: 0;
    right: auto;
  }
  .nav__secondary .nav__link_user {
    display: block;
    margin: 0 0 38px;
    background: none;
    flex-direction: column;
    order: 1;
  }
  .nav__secondary .nav__link_user .nav__preview {
    width: 94px;
    height: 94px;
    margin: 0 auto 10px;
  }
  .nav__secondary .nav__link_user .nav__pic {
    width: 100%;
    border-radius: 12px;
  }
  .nav__secondary .nav__link_user .nav__online {
    width: 16px;
    height: 16px;
    right: -6px;
    bottom: -6px;
    border-color: #f5f5fa;
  }
  .nav__secondary .nav__link_user .nav__title {
    min-height: 0;
    padding: 0;
    font-size: 26px;
    color: #1c1d21;
    line-height: 1.46154;
    justify-content: center;
  }
  .nav__secondary .nav__title {
    display: flex;
  }
  .nav__secondary .nav__preview {
    border-radius: 4px 0 0 4px;
  }
  .sidebar {
    position: static;
    height: auto;
    background: none;
  }
  .sidebar__nav {
    width: 0;
    z-index: 59;
  }
  .sidebar__container {
    display: none;
    width: 100%;
  }
  .sidebar__container.toggled .sidebar__action_toggle .la {
    -webkit-transform: rotate(90deg);
    transform: rotate(90deg);
  }
  .sidebar__container.toggled .sidebar__inner {
    display: block;
  }
  .sidebar__head {
    padding: 16px;
    background: white;
  }
  .sidebar__action_toggle .la {
    -webkit-transform: rotate(-90deg);
    transform: rotate(-90deg);
  }
  .sidebar__inner {
    display: none;
    padding: 16px;
    overflow: visible;
  }
  .sidebar_info {
    margin-bottom: -69px;
  }
  .sidebar_info .sidebar__container {
    display: block;
    padding-top: 69px;
  }
  .sidebar_menu .sidebar__head {
    display: none;
  }
  .sidebar_menu .sidebar__inner {
    display: block;
  }
  .items_stroke .items__item {
    background: #fbfbfd;
    border: none;
  }
  .messages__head {
    display: block;
    min-height: 0;
  }
  .messages__group {
    margin: 24px 0 0;
    justify-content: flex-start;
  }
  .series {
    display: block;
  }
  .container__head {
    position: absolute;
    top: 0;
    left: 0;
    width: 100%;
    padding: 16px;
    background: white;
    border-bottom: 1px solid #f0f0f3;
    justify-content: space-between;
  }
  .container__action_menu {
    display: none;
  }
  .container__title {
    font-size: 18px;
    order: 2;
  }
  .container__search {
    /* margin: 0; */
    order: 1;
  }
  .container__new {
    margin: 0;
    order: 3;
  }
  .container__body {
    padding: 16px 16px 92px;
  }
  .container.extended {
    padding: 0px 0 0;
  }
  .empty {
    min-height: calc(100vh - 188px);
  }
  .empty__title {
    font-size: 20px;
  }
  .panel {
    padding: 0;
    background: none;
  }
  .panel__head {
    display: block;
    margin-bottom: 18px;
  }
  .panel__head_line {
    display: flex;
  }
  .panel__head .panel__title {
    margin-bottom: 18px;
    padding: 0;
  }
  .panel__head_line .panel__title {
    margin: 0;
  }
  .panel__group {
    justify-content: space-between;
  }
  .panel__body_bg {
    padding: 24px;
    background: white;
    border-radius: 16px;
  }
  .panel__foot {
    margin-top: 18px;
  }
  .tag {
    min-width: 0;
    padding: 6px 8px 7px;
  }
  .grid {
    margin: 0;
  }
  .grid__table {
    min-width: 100% !important;
  }
  .grid__head {
    display: none;
  }
  .grid__body .grid__row:first-child .grid__cell {
    padding-top: 6px;
  }
  .grid__body .grid__row:last-child .grid__cell {
    padding-bottom: 6px;
  }
  .grid__row {
    display: flex;
    margin-bottom: 6px;
    padding: 8px;
    background: white;
    border-radius: 10px;
  }
  .grid__cell {
    padding: 8px;
    flex: 1 1 auto;
  }
  .grid__cell:first-child {
    padding-left: 6px;
  }
  .grid__cell:last-child {
    padding-right: 6px;
  }
  .grid__flex {
    align-items: flex-start;
  }
  .pager__arrow {
    padding: 0 9px;
    font-size: 0;
  }
  .pager__arrow .la {
    margin: 0;
  }
  .search__dropdown {
    left: 0;
    right: auto;
    width: calc(100vw - 32px);
  }
  .new__dropdown {
    position: fixed;
    top: auto;
    left: 0;
    bottom: 0;
    width: 100%;
    max-height: 100%;
    border-radius: 16px 16px 0 0;
    overflow: auto;
  }
  .layout__tabs {
    display: flex;
    margin: 0 -4px 16px;
  }
  .layout__panel {
    max-width: 100%;
  }
  .layout__panel_tab {
    display: none;
  }
  .layout__panel_tab.visible {
    display: block;
  }
  .layout_stroke .layout__panel {
    border: none;
  }
  .sort {
    margin-left: 6px;
  }
  .sort__head {
    border-radius: 6px;
  }
  .sort__icon {
    width: 36px;
    margin: 0;
    background: white;
    justify-content: center;
  }
  .sort__label,
  .sort__selected,
  .sort__arrow {
    display: none;
  }
  .sort__dropdown {
    position: fixed;
    top: auto;
    left: 0;
    bottom: 0;
    width: 100%;
    max-height: calc(100% - 68px);
    border-radius: 16px 16px 0 0;
    overflow: auto;
  }
  .info__section {
    padding: 12px 16px 16px;
    background: white;
    border-radius: 6px;
  }
  .info__section:not(:last-child) {
    margin-bottom: 4px;
  }
  .info__title {
    margin-bottom: 12px;
    font-size: 12px;
    color: #8181a5;
  }
  .info__text {
    color: #1c1d21;
  }
  .info__cover {
    padding: 0;
    background: none;
  }
  .data {
    margin: 0;
  }
  .data__head {
    display: none;
  }
  .data__cell {
    padding: 0 14px 0 0;
    flex: auto;
  }
  .data__cell:last-child {
    padding-right: 14px;
  }
  .data__cell_xl {
    flex: 1 1 auto;
  }
  .data__cell_lg {
    flex: 1 1 auto;
  }
  .data__cell_md {
    flex: 1 1 auto;
  }
  .data__cell_action {
    flex: 0 0 50px;
  }
  .data__cell_toggle {
    max-width: 54px;
    flex: 0 0 54px;
  }
  .data__body {
    padding: 0;
  }
  .data__item {
    padding: 12px 0;
    background: white;
    border: none;
    border-radius: 8px;
  }
  .data__item:not(:last-child) {
    margin-bottom: 4px;
  }
  .data__main {
    padding-left: 14px;
  }
  .data__preview {
    margin-right: 16px;
  }
  .data__box {
    padding: 14px;
  }
  .data_list .data__container {
    min-width: 0;
  }
  .data_grid .data__body {
    display: block;
    margin: 0;
  }
  .data_grid .data__item {
    margin: 0 0 4px;
  }
  .desk__col {
    padding: 0;
    border: none;
  }
  .desk__head {
    margin-bottom: 12px;
  }
  .desk__item {
    background: white;
  }
  .desk__item:not(:last-child) {
    margin-bottom: 4px;
  }
  .user-group_members {
    margin: -16px -16px 0;
    padding: 18px 0 18px 20px;
    background: white;
  }
  .user-group_members:after {
    flex: 0 0 20px;
  }
  .activity__head {
    margin-bottom: 12px;
  }
  .activity__item:not(:last-child) {
    margin-bottom: 4px;
  }
  .activity__text {
    padding-right: 40px;
  }
  .activity__gallery {
    margin: 0 -3px 8px;
  }
  .activity__preview {
    margin: 0 3px 6px;
  }
  .form__row {
    display: block;
  }
  .form_settings .form__row {
    margin-bottom: 40px;
  }
  .form_create {
    margin: 16px;
    padding: 16px;
    background: white;
    border-radius: 6px;
  }
  .menu__head {
    display: flex;
  }
  .menu__container {
    display: none;
    position: fixed;
    left: 0;
    bottom: 0;
    width: 100%;
    height: auto;
    max-height: calc(100% - 68px);
    background: white;
    border-radius: 6px 6px 0 0;
    overflow: auto;
    z-index: 99;
  }
  .menu__container.visible {
    display: block;
  }
  .menu__section {
    border: none;
    border-radius: 0;
  }
  .menu__section:last-child:not(:first-child) {
    margin: 0;
    border-top: 1px solid #f0f0f3;
  }
  .menu__section .menu__item {
    padding: 18px 24px;
  }
  .menu__section .menu__icon {
    margin-right: 16px;
    background: rgba(94, 129, 244, 0.1);
  }
  .menu__section .menu__icon .la {
    color: #5e81f4;
  }
  .menu__section .menu__text {
    display: none;
  }
  .menu__icon {
    display: flex;
    height: 40px;
    border-radius: 8px;
    align-items: center;
    justify-content: center;
    flex: 0 0 40px;
  }
  .menu_sidebar {
    min-height: 0;
  }
  .menu_sidebar .menu__head {
    margin: -16px;
  }
  .menu_sidebar .menu__section:last-child:not(:first-child) {
    margin: 0;
  }
  .settings {
    padding: 0 16px;
    flex-direction: column-reverse;
  }
  .settings__container {
    padding: 16px;
    /* background: white; */
    border-radius: 6px;
  }
  .settings__inner {
    margin-bottom: 8px;
  }
  .settings__btns {
    flex-direction: column;
  }
  .settings__btn {
    margin: 16px 0 0;
  }
  .settings__sidebar {
    padding: 0;
  }
  .settings_inside {
    margin-top: 32px;
  }
  .settings_tickets .settings__container {
    padding: 0;
    background: none;
  }
  .overview__value {
    font-size: 18px;
  }
  .overview_line {
    margin-bottom: 18px;
    padding-left: 12px;
    flex-wrap: nowrap;
    overflow: auto;
  }
  .overview_line:after {
    content: "";
    flex: 0 0 12px;
  }
  .overview_line .overview__item {
    min-width: 140px;
    margin: 0 4px;
    flex: 0 0 330px;
  }
  .overview_compact .overview__item {
    padding: 20px 12px;
    text-align: center;
    flex: 0 0 140px;
  }
  .overview_compact .overview__row {
    flex-direction: column-reverse;
  }
  .overview_compact .overview__col:last-child {
    margin: 0 0 10px;
  }
  .calendar {
    background: white;
  }
  .calendar__container {
    min-width: 100%;
  }
  .calendar__head {
    background: #f0f0f3;
  }
  .calendar__input {
    display: none;
  }
  .calendar_month .calendar__event {
    width: 8px;
    min-height: 8px;
    margin: 12px auto 0;
    padding: 0;
    border-radius: 50%;
    font-size: 0;
  }
  .calendar_month .calendar__event.green {
    background: #7ce7ac;
  }
  .calendar_month .calendar__event.red {
    background: #ff808b;
  }
  .calendar_month .calendar__event.blue {
    background: #5e81f4;
  }
  .calendar_month .calendar__event.yellow {
    background: #f4be5e;
  }
  .calendar_month .calendar__event.purple {
    background: #9698d6;
  }
  .calendar_month .calendar__event.gray {
    background: #8181a5;
  }
  .calendar_month .calendar__event.turquoise {
    background: #2ce5f6;
  }
  .details {
    margin: 0 -16px 22px;
    border-width: 1px 0;
    border-radius: 0;
  }
  .details__row {
    padding: 10px;
  }
  .details__cell {
    padding: 6px;
  }
  .modal {
    padding: 0;
  }
  .modal__container {
    max-width: 100%;
    min-height: 100%;
    padding: 0;
    border-radius: 0;
  }
  .modal__head {
    margin: 0;
    padding: 16px;
    background: white;
    border-bottom: 1px solid #f5f5fa;
  }
  .modal__head .modal__action {
    background: #f5f5fa;
    border-color: transparent;
  }
  .modal__head .modal__action:first-child {
    display: block;
  }
  .modal__container {
    background: #f5f5fa;
  }
  .modal__title {
    color: #1c1d21;
    text-align: center;
  }
  .modal_upload {
    background: white;
  }
  .modal_upload .modal__container {
    padding: 24px;
    background: white;
  }
  .reply__textarea {
    padding: 27px 16px;
  }
  .reply__actions {
    padding-right: 16px;
  }
  .content__head {
    margin: 0;
    padding: 22px 16px;
    background: white;
  }
  .content__container {
    padding: 16px;
  }
  .content__section {
    margin: 0;
    padding: 0;
  }
  .content__section:not(:last-child) {
    border: none;
  }
  .content__box {
    margin-bottom: 4px;
    padding: 12px 16px 18px;
    background: white;
    border-radius: 6px;
  }
  .content__box .content__title {
    margin-bottom: 12px;
    font-size: 12px;
    color: #8181a5;
  }
  .content__row {
    display: block;
  }
  .content__person {
    margin: 0;
    padding: 40px 16px;
    border: none;
  }
  .content__reply {
    margin: 0;
    background: white;
    border-radius: 0;
  }
  .content__data {
    margin: 0 -12px;
  }
  .content_about {
    background: white;
    border: none;
  }
  .content_about .content__container {
    padding: 0;
  }
  .content_about .content__inner {
    padding: 0;
  }
  .content_about .content__person {
    padding: 16px;
  }
  .chat__search {
    display: none;
  }
  .chat__comment {
    background: white;
  }
  .chat_notify .chat__comment {
    background: #f5f5fa;
  }
  .chat_notify .chat__reply {
    margin: 0 -14px -14px;
    background: #f6f6f6;
  }
  .chat_messages {
    padding: 16px;
  }
  .chat_messages .chat__top {
    margin-bottom: 16px;
  }
  .media__item {
    background: white;
    flex: 0 0 calc(50% - 16px);
  }
  .invoice__head {
    margin: 0;
    padding: 16px;
    background: white;
  }
  .invoice__inner {
    padding: 16px;
  }
  .invoice__details {
    margin-bottom: 16px;
    padding: 0;
  }
  .invoice__row_head {
    margin-bottom: 16px;
    font-weight: 400;
  }
  .invoice__row_body .invoice__col {
    padding: 16px;
    background: white;
    border-radius: 6px;
  }
  .invoice__company {
    padding: 8px;
  }
  .invoice__table {
    background: white;
    border-radius: 6px;
  }
  .invoice__table th {
    background: none;
  }
  .file__container {
    margin: -16px -16px 16px;
    background: white;
    border: none;
    border-radius: 0;
  }
  .file__members {
    margin: 24px 0;
  }
  .notify__item {
    padding: 20px 14px 14px;
    background: white;
    border: none;
  }
  .notify__item:not(:last-child) {
    margin-bottom: 8px;
  }
  .help {
    background: none;
  }
  .help__head {
    min-height: 0;
    margin: -16px -16px 24px;
    padding: 42px 20px;
    border-radius: 0;
  }
  .help__head .help__title {
    font-size: 26px;
  }
  .help__body {
    padding: 0;
  }
  .help__body .help__title {
    text-align: center;
  }
  .help__row {
    display: block;
  }
  .help__col:not(:last-child) {
    margin: 0 0 24px;
  }
  .help__preview {
    display: none;
  }
  .help__list {
    align-items: center;
  }
  .tickets__item {
    padding: 20px 14px;
    background: white;
    border: none;
  }
  .mobile-hide {
    display: none;
  }
  .mobile-show {
    display: block;
  }
  .mobile-text-right {
    text-align: right;
  }
}

@media only screen and (max-width: 526px) {
  .modal_reject {
    margin-top: 10px;
  }
  .modal_approve {
    margin-top: 10px;
  }
  .share_block_buttons button {
    margin-bottom: 10px;
  }
  .main_share_block {
    display: block !important;
  }
  .add_more_services span {
    margin-top: 22px !important;
  }
}

@media only screen and (max-width: 500px) {
  .single_order_details_API .data__row {
    display: block !important;
  }
  .single_order_details_API .data__row .data_cell {
    padding: 12px 0px;
  }
  .orders_btn_panel {
    display: block;
  }
  /* .wallet_second_block {
    margin-top: 0px !important;
  } */
  .custom_image_attached .image-tag {
    margin-bottom: 15px !important;
  }
  .dashboard_orders_status {
    display: block !important;
  }
  .dashboard_orders_status_one,
  .dashboard_orders_status_two,
  .dashboard_orders_status_three {
    margin-top: 10px;
  }
  .overviewicons {
    display: flex !important;
  }
  .overviewdatas .overview__label {
    display: none;
  }
  .modal_reject {
    margin-top: 10px;
  }
  .approved_works_action_header_buttons {
    display: block !important;
  }
  .image_attached {
    display: block;
  }
  .image-tag {
    margin-bottom: 30px;
  }
  .update_wallet {
    margin-bottom: 24px;
  }
  .wallet_form_field {
    margin-bottom: 0px !important;
  }
  .wallet_options {
    display: block;
  }
  .addFundsTableHeader {
    display: block;
  }
  .dashboard_orders_table_title {
    padding-bottom: 10px;
  }
  .dashboard_mini_overview_block {
    display: flex;
    justify-content: flex-start;
  }
  .dashboard_overview_orders_block {
    padding: 0px 15px 0px 0px !important;
  }
  .overview_title {
    margin-left: 0px;
  }
  .dashboard_main_banner_overview_block {
    margin-top: 10px;
  }
  .dashboard_banner_block {
    display: block;
  }
  .conversation_container {
    display: block !important;
  }
  .addFundsTableHeader {
    display: block;
  }
  .addFundsTableHeaderAction {
    margin-top: 10px;
  }
  /* ////////copied///////////// */
  .save_this_platform {
    margin-top: 18px;
  }
  .wallet_block {
    padding: 24px 10px;
  }
  .wallet_main_block {
    padding: 24px !important;
  }
  .title_xl {
    font-size: 24px;
    line-height: 1.3125;
  }
  .dashboard_main_block {
    margin-top: -30px;
  }
  .dashbboard_left_block_wallet {
    margin-top: -30px;
  }
  .wallet_first_block {
    margin-left: 0px;
    margin-top: 0px;
  }
  .wallet_second_block {
    margin-left: 0px;
    margin-top: 15px !important;
  }
  .wallet_third_block {
    margin-left: 0px !important;
    margin-top: 11px;
  }
  .platform_table_body {
    margin-top: 28px;
  }
  .platform_action_group {
    margin-top: 17px !important;
  }
  .title_xl {
    font-size: 24px;
    line-height: 1.3125;
  }
  .wallet_left_block {
    flex-direction: column;
    display: flex;
    justify-content: "flex-start";
  }

  .withdraw_wallet {
    margin-left: 0px !important;
  }
}
@media only screen and (max-width: 410px) {
  .main_share_block_panel {
    display: block !important;
  }
  .wallet_panel .panel__body_bg {
    padding: 0px !important;
  }
  .wallet_second_block {
    margin-top: 16px !important;
  }
  .register_form .auth__inner {
    padding: 40px 20px;
  }
  .userprofilename {
    display: none;
  }
  .dashboard_main_block {
    margin-top: -30px;
  }
  .dashbboard_left_block_wallet {
    margin-top: -30px;
  }
}
@media only screen and (max-width: 360px) {
  .orders_title {
    margin-top: 20px;
  }
  .overview_line {
    display: flex;
  }
  .single_over_item {
    font-size: 11px;
  }
  .dashboard_main_block {
    margin-top: -30px;
  }
  .dashbboard_left_block_wallet {
    margin-top: -30px;
  }
  .wallet_left_block {
    display: block;
  }
  .share_block {
    display: block;
  }
  .addNewPlatformDataList {
    padding: 0px !important;
  }
  .platform_action_group {
    margin-top: 10px;
  }
  .single_over_item {
    font-size: 11px;
  }
  .title_lg {
    font-size: 14px;
  }
  .image-tag {
    margin-bottom: 10px;
  }
  .image_attached {
    display: block !important;
    margin-top: 10px;
    width: 60%;
    margin-left: auto;
    margin-right: auto;
  }
  .report-send input {
    font-size: 12px;
  }
}

@media only screen and (max-width: 350px) {
  .orders_btn_panel {
    display: block;
  }
  .userprofilename {
    display: none;
  }
  .dashboard_main_wallet_two {
    margin-left: 31px;
  }
  .modal_approve {
    margin-top: 10px;
  }
  .modal_header {
    display: block;
  }
  .view_all_block {
    padding: 10px 0px;
  }
  .dashboard_orders_table_title {
    display: block;
  }
  .conversation_container {
    display: block !important;
  }
  .evan_yates {
    display: none;
  }
  .addFundsTableHeaderAction {
    margin-top: 10px;
  }
  .search_none {
    display: none;
  }
  .search_icon {
    margin-right: 0px !important;
  }
  .addFundsTableHeader {
    display: block;
  }
  .custom_action_search {
    display: flex;
  }
  .banner_wallet_block {
    display: flex;
    justify-content: space-between;
  }
  .banner_wallet_block_one {
    margin-right: 56px;
  }
}

@media print {
  .datepickers-container {
    display: none;
  }
}

.sidebar-menu {
  width: 300px;
  height: 100%;
  position: absolute;
  top: 0;
  left: -300px;
  -webkit-transform: translateX(0);
  transform: translateX(0);
  -webkit-transition: 0.3s ease all;
  transition: 0.3s ease all;
  background: #333;
}

.open {
  -webkit-transform: translateX(300px);
  transform: translateX(300px);
}

.default nav {
  display: block;
}
.collapse:not(.show) {
  display: none;
}
.collapsing {
  position: relative;
  height: 0;
  overflow: hidden;
  transition: height 0.35s ease;
}

/** Start Custom CSS  **/
.custom_d_flex {
  justify-content: center;
}
.dashboard_title_row {
  margin-bottom: 22px;
}
.addFundsDashboardBlock {
  display: flex;
  align-items: center;
  justify-content: flex-end;
}
.custom_header_main_title {
  font-size: 26px;
  line-height: 1.46154;
  font-weight: 700;
}
.custom_header_subtitle {
  margin-bottom: 22px;
}
.addFundsDeposit p {
  text-align: center;
}
.buttons_block_panel .panel__body_bg {
  width: 100%;
}
.custom_recieve_otp {
  margin: auto !important;
}
.otp_sub_title {
  text-align: center;
}
.otp_title {
  margin-bottom: 22px;
}
.default .navbar {
  padding: 0rem 1rem !important;
}

/** End Custom CSS  **/

@media (prefers-reduced-motion: reduce) {
  .collapsing {
    transition: none;
  }
}

.also_share_with_blocks {
  width: 20px;
  color: black;
  /* margin-top: 12px; */
  margin-right: 10px;
}

.discussion_buttons .submit_work_reject {
  width: 100%;
  background: #ff808b;
  border: #ff808b;
}
.single_order_details_API {
  overflow: scroll;
}
.single_order_details_API::-webkit-scrollbar {
  display: none;
}
.modifyOrdersTitle {
  padding: 15px 0px;
}
.submited_orders_container {
  border: 1px solid #f0f0f3;
  padding: 24px;
  border-radius: 13px;
  margin-bottom: 20px;
}
.submited_orders_container .title {
  margin-bottom: 20px;
}
.modifyOrdersFormField {
  padding: 0px !important;
}
.single_order_details_API_data_list {
  padding: 24px;
}
.submitedOrderDetails {
  color: #8181a5;
  font-weight: 600;
  margin-top: 16px;
}
.rejected_reason_block {
  padding: 24px;
  border: 1px solid #f0f0f3;
  border-radius: 13px;
  margin-bottom: 20px;
}

.rejected_reason_block .container__title {
  margin-bottom: 20px;
}
.badges {
  color: #39daad;

  margin-right: 5px;
}

.container-dash {
  padding-left: 242px;
  padding-right: 0px !important;
}

.custom_toggle {
  display: inline-flex !important;
}
.demo-container {
  padding: 0px 345px;
}

/* .btn:hover{
    background:#475eaa;
    color:white
  }
  .btn{
    background: #5e81f4 !important;
    border: #5e81f4 !important;
    color:white;
    font-weight: 600;
  } */
a {
  text-decoration: none !important;
}
/* a:hover{
  color: #8181a5 !important
} */
.order_panel_buttons {
  border-radius: 8px !important;
}

.btn-primary:not(:disabled):not(.disabled).active,
.btn-primary:not(:disabled):not(.disabled):active,
.show > .btn-primary.dropdown-toggle {
  background: #5e81f4;
  color: white !important;
  border: #5e81f4 !important;
}
.btn-primary {
  background: #5e81f4;
  color: #fff !important;
  font-weight: 600;
  border: #5e81f4 !important;
  border-radius: 8px;
}

.btn.active {
  background: #5e81f4;
  color: white !important;
  font-weight: 600;
  border: #5e81f4 !important;
}
.btn-primary.active:focus,
.btn-primary.active:hover {
  background: #5e81f4 !important;
  border: #5e81f4 !important;
  color: white !important;
}

.pagination_element .pagination .active a {
  background: #e9e9f1;
  border: 1px solid transparent;
  border-radius: 6px;
  font-weight: 700;
  color: #8181a5;
  align-items: center;
  justify-content: center;
  transition: all 0.2s;
  vertical-align: middle;
  display: inline-flex;
  min-width: 36px;
  height: 36px;
  padding: 0 9px;
  color: #8181a5 !important;
}
.pagination_element .pagination > li > a:hover {
  font-weight: 700;
  color: #8181a5;
  align-items: center;
  justify-content: center;
  transition: all 0.2s;
  vertical-align: middle;
  display: inline-flex;
  min-width: 36px;
  height: 36px;
  padding: 0 9px;
}
.pr_wallet_data_item {
  padding: 24px;
}
.login_form {
  flex: 0 0 46.68%;
}
.custom_button {
  padding: 8px 15px;
  border-radius: 8px;
}

.forgot_otp_form_col {
  flex: 0 0 25%;
  display: flex;
  justify-content: center;
  align-items: center;
}
.hire_people_data_list .data__container .data__body {
  padding: 0px !important;
}
.hire_people_data_list .data__container .data__body .data__item {
  border: 0px !important;
  padding: 0px !important;
}
.hire_people_invoice_inner {
  border: 1px solid #f0f0f3;
  border-radius: 13px;
}
.hire_people_data_list {
  background-color: hsl(164deg 100% 41%) !important;
  margin: 0px 0px 0px 0px !important;
  border-radius: 13px 13px 0px 0px !important;
  padding: 24px;
}
.hire_people_data_label {
  color: white !important;
}
.hire_people_data_content {
  color: white !important;
  font-weight: 600;
}
.custom_green {
  color: #39daad;
  font-weight: 600;
}
.custom_red {
  color: #ff808b;
  font-weight: 600;
}
.custom_yellow {
  color: #f4be5e;
  font-weight: 600;
}
.custom_gray {
  color: #8181a5;
  font-weight: 600;
}
.btn-primary:hover {
  background: #475eaa !important;
  color: white !important;
  box-shadow: none !important;
}
.a:not([href]):not([class]) {
  color: #8181a5 !important;
}
.order_progress_layout_panel {
  height: max-content;
}
.pr_submit_orders {
  display: flex;
  justify-content: center;
  align-items: center;
}
.pr_content_section {
  margin-bottom: 0px !important;
  padding-bottom: 0px !important;
}
.btn-primary:not(:disabled):not(.disabled).active:focus,
.btn-primary:not(:disabled):not(.disabled):active:focus,
.show > .btn-primary.dropdown-toggle:focus {
  box-shadow: none;
}
.btn-primary.focus,
.btn-primary:focus {
  color: #fff;
  background-color: #0069d9;
  border-color: #0062cc;
  box-shadow: none !important;
}
.btn.focus,
.btn:focus {
  outline: 0;
  box-shadow: none !important;
}
.btn-primary.focus,
.btn-primary:focus {
  background-color: #5e81f4 !important;
}
.btn-primary.focus,
.btn-primary:focus {
  background-color: #5e81f4 !important;
}
.clipboard {
  background: #000;
  color: #fff;
  padding: 10px 15px;
  text-align: center;
  margin-top: 24px;
}
.addressToCopy {
  justify-content: center;
  display: flex;
  align-items: center;
  overflow: scroll;
}
.addressToCopy::-webkit-scrollbar{
  display: none;
}
.addressCopyBtn {
  margin-top: 10px;
  display: table;
  margin: 0 auto;
  margin-top: 10px;
}
.buttons_block_panel {
  /* height:max-content; */
  align-items: center;
  justify-content: center;
  display: flex;
}
.fundsAddBack {
  display: flex;
  justify-content: center;
  align-items: center;
}
.fundsAddCountDown {
  text-align: center;
  font-weight: 600;
  font-size: 22px;
}
.fundsAddSettingsInnter {
  margin-bottom: 0px !important;
}
.filterAndTitle {
  margin-top: 22px;
}
.orderDetailsFilter {
  align-items: center;
  display: flex;
  justify-content: flex-end;
}
.custom_overview_value {
  align-items: center;
  display: flex;
  justify-content: center;
}
.custom_overview_value {
  color: #333 !important;
}
.estimatedUsd {
  font-size: 28px !important;
  color: #333 !important;
}
.estimatedUsdPadid {
  font-size: 14px;
  margin-left: 10px;
  color: #333;
}
.check_img {
  height: 22px;
  margin-right: 13px;
}
.orders_subtitle_row {
  margin-bottom: 22px;
}
.supportTeam {
  min-width: 0px;
  height: max-content;
  padding: 0px;
  margin-top: 22px;
  margin-bottom: 0px;
}
.btn {
  border-radius: 5px !important;
}
.btn > span {
  padding: 0px !important;
}
.login_span_text {
  font-size: 16px;
}
.default_nav_title {
  font-weight: 600;
}
.custom_input_group .input-group-text {
  padding: 0px !important;
}
.custom_input_group select {
  min-height: 36px;
  border: 0px;
}
.custom_navbar_collapse {
  justify-content: flex-end;
}
.custom_nav_items {
  padding: 0px 12px;
  font-size: 16px;
  letter-spacing: 0.025em;
}
.nav_header_links {
  position: relative !important;
  z-index: 2;
  color: #5e81f4 !important;
  font-weight: 700 !important;
}
.custom_auth_container {
  padding-left: 0px !important;
}

.side-menu-dropdown-icon {
  padding-left: 60px;
}

.first-side-menu {
  padding-top: 0px;
}
.incorporatetask {
  display: flex;
  line-height: 1.8;
}
.incorporatetask .info__values {
  margin-left: 10px;
}
.pr_submited_details {
  margin-top: 22px !important;
  font-size: 18px;
  font-weight: 600;
  margin-bottom: 7px;
}
.info__values {
  font-size: 16px;
}
.pub_order_id {
  font-weight: 400;
  margin-bottom: 10px !important;
}
.default .change_navbar button:focus {
  outline: 0px;
  outline: 0px !important;
}
.default .change_navbar .navbar-toggler {
  border: 0px !important;
}
.profile_tab_titles {
  margin-bottom: 22px;
}
.profile_tab_buttons {
  margin-top: 0px !important;
}
.pr_platform_status {
  font-size: 14px;
}
.pr_platform_edit {
  font-size: 16px;
}
.pr-platform-row {
  margin-top: 20px;
}
.custom_table_button {
  border-radius: 5px;
  padding: 3px 10px;
  font-weight: 600;
}
.pr_platform_edit {
  border-radius: 5px;
  background: #fff;
  box-shadow: 0 0 5px #ddd;
  padding: 10px;
  border: 0px;
}
.custom_dot {
  width: 12px !important;
  height: 12px !important;
}
.pr_platform_country_list .optionListContainer {
  z-index: 99999;
}
.pr_platform_country_list .searchWrapper {
  border-bottom: 1px solid #f0f0f3 !important;
  margin-top: 7px;
  border: 0px;
  padding-bottom: 17px;
  margin-left: -4px;
}

.pr_platform_country_list_edit .optionListContainer {
  z-index: 99999;
}
.pr_platform_country_list_edit .searchWrapper {
  border-bottom: 1px solid #f0f0f3 !important;
  margin-top: 14px;
  border: 0px;
  padding-bottom: 2px;
  margin-left: -4px;
}

button:focus {
  outline: 0px !important;
  outline: 0px !important;
}
.pr_platform_create_save_platform {
  padding: 24px 0px;
}
.form-check {
  position: relative;
  display: block;
  margin: 0px 15px 10px 2px;
}

@media only screen and (max-width: 505px) {
  .dash-first-block {
    padding-top: 24px;
  }
}

.dash-account-overview {
  border: 1px solid #f0f0f3;
  padding: 0px 12px;
  height: 95px;
}

.rc-time-picker-clear {
  display: none;
}

.field__wrap .rc-time-picker {
  width: 100% !important;
  border-bottom: 1px solid #f0f0f3;
  padding-top: 19px;
}

.field__wrap .rc-time-picker-input {
  border: 0px solid #d9d9d9;
  padding-bottom: 20px;
}

/* CSS CODE FROM STYLE.CSS  STARTS HERE*/
.custom_action {
  box-shadow: 0 0 5px #ddd;
  border-radius: 13px;
  background: #fff;
}
.custom_search__action {
  background: #fff;
  box-shadow: 0 0 5px #ddd;
  padding: 8px 13px;
  border-radius: 12px;
  height: 36px;
}
.overview_enable .overview__col .overview__label .online {
  position: relative;
  right: 0;
  bottom: 0px;
}
.register_form .auth__btns .empty__btn:hover {
  background: #475eaa !important;
}
.notOnHover:hover {
  background: #475eaa !important;
}
.overviewitems .overview__item .progress {
  margin-bottom: 10px;
}
.overviewitems .overview__item {
  background: transparent;
}
.overviewitems .overview__item .overview_enable {
  font-size: 13px;
  padding: 2px 50px;
}
.overviewitems .overview__item {
  font-size: 13px;
  padding: 24px;
}
.overviewitems .data_list .data__container {
  min-width: 0px;
}
.overviewitems .data_list .data__container .data__body {
  padding: 24px 0px;
}
.work_asigned_tbl .data__cell:last-child {
  padding-right: 8px;
}
.work_asigned_tbl .data__cell:first-child {
  padding-left: 8px;
}
.work_asigned_tbl .data__content {
  text-align: center;
}
.work_asigned_tbl .data__label {
  text-align: center;
}
.panellayouts {
  height: fit-content;
}
.maintitle .container__head {
  padding: 4px 0px;
}
.maintitle .content__body {
  margin-bottom: 14px;
}
.panelheadline {
  padding: 20px 10px 0px 4px;
}
.orders_secondlayouts .content__section {
  /* padding-left: 4px; */
  border: none;
  margin-bottom: 0px;
  font-size: 14px;
}
/* .orders_secondlayouts .content__section .content__content {
  margin-top: 20px;
} */
.singleorder_tbl .content__content {
  padding-left: 3px;
}
.singleorder_tbl .data_list {
  background: white;
  margin: 0px 0px;
  border-radius: 12px;
}
.singleorder_tbl .data_list .data__main {
  padding-left: 16px;
}
.singleorder_tbl .data__pic {
  border-radius: 50px;
}

.completedbtn {
  background: #29bb29;
  border: 1px solid #29bb29;
  color: white;
  font-size: 12px;
}
.completedbtn:hover {
  background: #19a819;
  border: 1px solid #29bb29;
}
.order_cards {
  padding: 20px 24px;
  background: #17884b;
  border-radius: 10px;
  color: white;
  text-align: center;
  /* margin-bottom: 14px !important; */
}
.order_cards .overview__col {
  margin-left: 0px;
}
.order_cards .overview__col .overview__label {
  color: white;
  font-size: 15px;
  display: flex;
  justify-content: center;
}
.order_cards .overview__col .overview__value {
  /* margin: 10px 0px; */
}
/* .singleorder_tbl .data_list .data__container {
  min-width: 0px;
} */
.orders_secondlayout .content__text {
  font-size: 15px;
  margin: 10px 0px;
}

.orders_secondlayout .content__content {
  font-size: 15px;
}
.orders_secondlayout .updates__item {
  background-color: transparent;
  padding: 20px 0px 0px 0px;
}

.orders_secondlayout .updates__item .updates__value {
  font-size: 15px;
  margin: 10px 0px;
  color: #8181a5;
}

.orders_secondlayout .content__section:not(:last-child) {
  border-bottom: 0px;
}
.conversation_data .widget__body .items .items__item {
  background: transparent;
  padding-left: 0px;
  padding-right: 0px;
}
.report-send {
  border: 2px solid #ddd;
  padding: 7px 14px;
  border-radius: 10px;
  display: flex;
  margin: 20px 0px 10px 0px;
}
.btnsend {
  color: white;
  background: #5e81f4;
  border: 1px solid #5e81f4;
  border-radius: 10px;
  padding: 2px 10px;
  transition: all 0.2s;
  box-shadow: 0 0 5px #5e81f4;
  font-size: 4px;
  font-weight: 700;
  margin-left: auto;
}
.orders_secondlayout {
  height: max-content;
}
.conversation_data .widget__body .items .items__item .items__pic {
  border-radius: 50px;
}
.allorder_popup .modal__container {
  max-width: 800px;
  margin-top: 40px;
}
.allorder_popup .members__pic {
  border-radius: 50px;
}
.allorder_popup .content__preview {
  box-shadow: none;
}
.allorder_popup .content__head {
  margin-bottom: 10px;
}
.allorder_popup .content__section:not(:last-child) {
  border-bottom: none;
}
.allorder_popup .tag-group {
  color: white;
  margin-top: 14px;
}
.allorder_popup .content__content {
  font-size: 13px;
}
.allorder_popup .invoice__inner {
  font-size: 12px;
}
.allorder_popup .content__title {
  font-size: 15px;
}
.allorder_popup .content__section {
  margin-bottom: 0px;
}
.allorder_popup .close {
  color: #000;
  float: right;
  font-size: 14px;
  background: #fff;
  padding: 5px 10px;
  border-radius: 8px;
  margin-right: -27px;
  margin-top: -69px;
  font-weight: 600;
  box-shadow: 0 0 5px #ddd;
}
.actionbtn .la-angle-down {
  position: relative;
  top: -1px;
  margin-left: 4px;
  color: white;
}
.action_dropdownbtn .sort__dropdown {
  display: none;
  position: absolute;
  top: calc(100% + 10px);
  right: 0px;
  min-width: 120px;
  padding: 10px 5px;
  background: white;
  border-radius: 6px;
  z-index: 99;
  box-shadow: 0 0 5px #ddd;
}
.action_dropdownbtn .backdrop {
  background: transparent;
}
.actionbtns {
  margin-left: 8px;
}
.actionbtns .rejectbtn {
  background: #f50b0b;
  color: white;
  border: 1px solid #f50b0b;
  margin-bottom: 8px;
}
.selectedbtn {
  background: #29bb29;
  border: 1px solid #29bb29;
  color: white;

  font-size: 14px;
}
.actionbtn {
  margin-top: 10px;
  background: #5e81f4;
  border-color: #5e81f4;
  color: white;
  padding: 7px 8px;
  font-size: 12px;
}
.actionbtns .selectedbtn {
  margin-bottom: 8px;
}
.selectedbtn:hover {
  background: #19a819;
  border: 1px solid #29bb29;
}
.rejectbtn {
  background: #f50b0b;
  color: white;
  border: 1px solid #f50b0b;
  margin-bottom: 8px;
}
.overviewicons .la {
  padding: 6px;
}
.onprocessbtn .la {
  color: white;
}
.overviewcreate {
  padding: 14px;
}

.rejectbtn:hover {
  background: #bf1010;
  color: white;
  border: 1px solid #bf1010;
}
.create_order_cards {
  background-color: #ffffff;
  margin-bottom: 50px !important;
}

.create_order_cards .overview__value {
  font-size: 26px;
  font-weight: 700;
  margin-bottom: 6px;
  margin-top: 6px;
}
.order_project_form {
  /* margin-top: 20px; */
  padding: 30px 24px;
  background: white;
}
.confirm_request {
  border: 1.2px solid #ddd;
  padding: 20px;
  border-radius: 12px;
  margin: 10px 0px;
}

.order_project_form .invoice__table .table th {
  /* padding: 10px 14px; */
  background: #f5f5fa !important;
  color: #8181a5;
}

.confirm_request .panel__title {
  font-size: 15px;
  margin-bottom: 15px;
}
.confirm_request .form {
  margin-bottom: 20px;
}
.confirm_request .red {
  background: transparent;
}
.confirm_request .bg-green-raw {
  background: transparent;
  color: #7ce7ac;
}
.fileuploadsection .content__title {
  margin-bottom: 12px;
  margin-top: 30px;
  font-size: 14px;
}
.order_project_form .content__section {
  border-bottom: 0px !important;
}
.fileuploadsection .control {
  font-size: 13px;
  margin-bottom: 20px;
}
.fileuploadsection .content__body {
  border-bottom: 1px solid #ddd;
}
.tableoverflow .grid {
  margin: 0px;
}

.show {
  display: block !important;
}
.dropbtn {
  padding: 9px 14px 9px 14px;
  font-size: 16px;
  border: none;
  cursor: pointer;
  border-radius: 8px;
  background: rgba(94, 129, 244, 0.1);
  color: #5e81f4;
}
.dropdown-content {
  display: none;
  position: absolute;
  background-color: #fff;
  min-width: 82px;
  overflow: auto;
  box-shadow: 0px 8px 16px 0px rgb(0 0 0 / 20%);
  z-index: 1;
  padding: 15px;
  border-radius: 13px;
  margin-left: -10px;
}
.dropdown-content a {
  padding: 7px 30px;
  text-decoration: none;
  display: block;
  height: 36px;
  margin-top: 12px;
  margin-bottom: 12px;
  border: 0px;
}

.request_form_fiels .form__col {
  padding: 0 16px;
  flex: 0 0 25% !important;
}

.login_form .auth__btns {
  display: inherit;
  text-align: center;
  margin: 10px 0px 10px;
}
.login_form .auth__btns .empty__btn {
  min-width: 170px;
}
.login_form .empty__btn i {
  margin-left: 8px;
}
.reg_auth_link {
  font-weight: 600;
  margin-top: 14px;
}
.login_form .title_xl {
  font-size: 28px;
  line-height: 1.3125;
  text-align: center;
  /* max-width: 360px; */
}

/* css code from style1.css starts here*/
.create_order_cards {
  background-color: #ffffff;
  margin-bottom: 25px !important;
}

.create_order_cards .overview__value {
  font-size: 26px;
  font-weight: 700;
  margin-bottom: 6px;
  margin-top: 6px;
}
.order_cards {
  padding: 20px 24px;
  background: #f5f5fa;
  border-radius: 10px;
  color: white;
  text-align: center;
  /* margin-bottom: 14px !important; */
}
.order_cards .overview__col {
  margin-left: 0px;
}
.order_cards .overview__col .overview__label {
  color: white;
  font-size: 15px;
}
.panelheadline {
  padding: 20px 10px 0px 4px;
  margin-bottom: 0px;
}
.singleorder_tbl .content__content {
  padding-left: 3px;
  margin-bottom: 20px;
}
/* css code from style.css ends here */

@media only screen and (max-width: 1250px) {
  .orderdetais_page {
    display: block;
  }
}

@media only screen and (min-width: 767px) and (max-width: 1200px) {
  /* .singleorder_tbl .data_list .data__container {
    min-width: 884px;
  } */
  .singleorder_tbl .data__preview {
    background: transparent;
  }
  .request_form_fiels .form__col {
    margin-bottom: 18px !important;
  }
}

@media only screen and (max-width: 767px) {
  .login_form {
    flex: 0px;
    /* box-shadow: 0 0 5px #ddd; */
  }
  .request_form_fiels .form__col {
    margin-bottom: 18px !important;
  }
  .orders_secondlayout .panel__body_bg .conversation_data {
    margin-top: 16px;
  }

  .tableoverflow .grid .grid__head {
    display: flex !important;
  }
  .nav__title {
    display: none;
  }
  .maintitle .container__head {
    padding: 0px;
    position: relative;
    background: transparent;
    border: none;
  }
  .maintitle .container__head .container__title {
    font-size: 18px;
    order: 1;
  }
  .allorder_popup .close {
    color: #000;
    float: right;
    font-size: 14px;
    background: #fff;
    padding: 5px 10px;
    border-radius: 8px;
    margin-right: 18px;
    margin-top: -34px;
    font-weight: 600;
    box-shadow: 0 0 5px #ddd;
    position: absolute;
    margin-left: 20px;
  }
  .allorder_popup .modal__container {
    background: #ffffff;
  }
}

@media only screen and (max-width: 520px) {
  .overviewitems .overview__item {
    font-size: 13px;
    padding: 14px 0px;
  }
  .overviewitems .overview__item .overview_enable {
    font-size: 13px;
    padding: 2px 0px;
  }
}

@media only screen and (max-width: 390px) {
  .overviewitems .overview__item {
    font-size: 12px;
    padding: 14px 0px;
  }
  .work_asigned_tbl .data__content {
    text-align: center;
  }
  .work_asigned_tbl .data__label {
    text-align: center;
  }
  .overview_details .overview__col {
    margin-right: 10px;
  }
  .overviewicons {
    display: flex !important;
  }
  .overviewdatas {
    display: none;
  }
}
/* CSS CODE FROM STYLE.CSS  ENDS HERE*/

/* css code from my_style starts here */
input[type="number"]::-webkit-outer-spin-button,
input[type="number"]::-webkit-inner-spin-button {
  -webkit-appearance: none;
  margin: 0;
}
input[type="number"] {
  -moz-appearance: textfield;
}

.error {
  color: red;
}

.otp-form-control input {
  width: 2rem !important;
}

.otpinput div {
  display: inline-flex !important;
  text-align: center;
}

.auth_form input {
  text-align: center;
  border: 1px solid #9b9ca4;
  height: 35px;
  font-size: 18px;
  line-height: 35px;
  border-radius: 2px;
  box-shadow: none !important;
  background-color: #e2e2e2 !important;
}

.custom_tittle {
  text-transform: capitalize;
}

.alert {
  padding: 15px;
  background-color: #eff2fe;
  color: white;
  opacity: 1;
  transition: opacity 0.6s;
  margin-bottom: 15px;
  border-radius: 15px;
}

.alert-close {
  margin-left: 15px;
  color: white;
  font-weight: bold;
  float: right;
  font-size: 22px;
  line-height: 20px;
  cursor: pointer;
  transition: 0.3s;
}

.alert-success {
  background-color: #04aa6d;
}
.alert-info {
  background-color: #5e81f4;
}
.alert-warning {
  background-color: #ff9800;
}
.alert-default {
  background-color: #eff2fe;
  color: #5e81f4;
}

.alert-default .alert-close {
  color: #5e81f4;
}

.alert-close:hover {
  color: black;
}

.modal-header {
  border-bottom: 0px;
}

.table th {
  font-size: 12px;
}

.table-bordered {
  border: 1px solid #dee2e6;
}

.table-bordered td,
.table-bordered th {
  border: 1px solid #dee2e6;
}

.table-bordered thead td,
.table-bordered thead th {
  border-bottom-width: 2px;
}

.side_menu_logo_title {
  font-size: 17px;
  color: #5e81f4;
  font-weight: 800;
}

.dot {
  height: 8px;
  width: 8px;
  background-color: #bbb;
  border-radius: 50%;
  display: inline-block;
}

.green_dot {
  height: 8px;
  width: 8px;
  background-color: #7ce7ac;
  border-radius: 50%;
  display: inline-block;
}

.progress-content {
  font-weight: 600;
}

.progress-green {
  color: #4caf50;
}

.updates__item_custom {
  background: transparent;
  padding: 0px !important;
}

.search__input_custom {
  border: 1px solid #d1d1de;
}

.react-tabs__tab--selected {
  background: #5e81f4;
  border-color: #5e81f4;
  color: white;
  /* padding:8px 28px; */
  border-radius: 8px;
}

.react-tabs__tab-list {
  margin-bottom: 20px;
}

.dropdown-container a {
  display: block;
  padding: 6px 0 6px 35px;
}

.delete-button-label {
  margin-bottom: 5px;
}

.my_field__input,
.my_field__select {
  height: 40px;

  background-color: transparent;
  border: solid #d0d0d8;
  border-width: 0 0 1px;
  transition: border-color 0.2s;
}

.my-custom-btn {
  display: inline-flex;
  height: 20px;
  padding: 0 5px;
  background: #5e81f4;
  border: 1px solid #5e81f4;
  border-radius: 8px;
  font-weight: 700;
  color: white;
  transition: all 0.2s;
  align-items: center;
  justify-content: center;
  vertical-align: middle;
}
.my-custom-btn {
  display: inline-flex;
  height: 30px;
  padding: 0px 12px;
  background: #5e81f4;
  border: 1px solid #5e81f4;
  border-radius: 5px;
  font-weight: 700;
  color: white;
  transition: all 0.2s;
  align-items: center;
  justify-content: center;
  vertical-align: middle;
}

.loader {
  border: 5px solid #f3f3f3;
  border-radius: 50%;
  border-top: 5px solid #3498db;
  width: 30px;
  height: 30px;
  -webkit-animation: spin 2s linear infinite; /* Safari */
  animation: spin 2s linear infinite;
  display: flex;
  justify-content: center;
  align-items: center;
  margin: auto;
  align-content: center;
}

.my_custom_cell {
  padding: 4px;
  text-transform: capitalize;
}

.grid__body .grid__row:first-child .my_custom_cell {
  padding-top: 10px;
}

.dropdown-menu-li {
  text-align: center;
  height: 36px;
}
.btn-m-10 {
  margin: 10px;
}

.alert-image-center {
  width: 50px;
  margin: auto;
}
.modal-heading {
  font-weight: 600;
  margin-bottom: 10px;
}
.modal-description {
  margin: 10px;
}

.form-control:focus {
  color: #495057;
  background-color: #fff;
  border-color: #aaa;
  outline: 0;
  box-shadow: unset;
}
.content__title {
  text-transform: capitalize;
}

.d-none {
  display: none;
}
.d-block {
  display: block;
}

.label_custom {
  margin-bottom: 5px;
  font-size: 13px;
  font-weight: 600;
}

.pub-title {
  font-weight: 700;
  font-size: 15px;
}

.grid__text {
  text-transform: capitalize;
}

.btn-loader {
  opacity: 0.8;
}

/* Safari */
@-webkit-keyframes spin {
  0% {
    -webkit-transform: rotate(0deg);
  }
  100% {
    -webkit-transform: rotate(360deg);
  }
}

@keyframes spin {
  0% {
    transform: rotate(0deg);
  }
  100% {
    transform: rotate(360deg);
  }
}

/* css code from my_style ends here */

.custom-table th {
  text-align: center !important;
}
.custom-table td {
  text-align: center !important;
  vertical-align: middle;
  padding: 16px 0px;
}
.order_status_dashboard {
  font-size: 14px !important;
}
.clickToCreate {
  margin-top: 22px;
}
.pr_orders_table_header {
  margin-bottom: 22px !important;
}
.ad_order_recieve {
  margin-right: 10px !important;
}
.pr_orders_settings_container {
  padding: 0px !important;
}
.qrcodenpm {
  text-align: center;
  zoom: 0.8;
  margin: 25px 0;
}
.sorry_block {
  text-align: center;
  border: 1px solid #f0f0f3;
  border-radius: 5px;
  padding: 24px;
}
.sorry_block_text {
  line-height: 1.6;
}
.pr_platform_preview_value {
  color: #8181a5;
  font-weight: 600;
  border-bottom: 1px solid #f0f0f3;
  height: 24px;
  margin-top: 7px;
  margin-bottom: 22px;
}
.pr_platform_preview_label {
  color: #8181a5;
}
.platform_modal_content .title {
  margin-bottom: 22px;
}
.auth_resend {
  text-align: center;
  font-weight: 600;
  color: #5e81f4;
}
.pr_wallet_block {
  padding: 24px;
}
.select_payments_block .settings {
  display: block !important;
}
